<?xml version="1.0"?>
<net name="Model7" version="11">
	<layers>
		<layer id="2" name="batched_images" type="Parameter" version="opset1">
			<data shape="?,?,?,?" element_type="f32" />
			<output>
				<port id="0" precision="FP32" names="batched_images">
					<dim>-1</dim>
					<dim>-1</dim>
					<dim>-1</dim>
					<dim>-1</dim>
				</port>
			</output>
		</layer>
		<layer id="1" name="batched_points" type="Parameter" version="opset1">
			<data shape="?,?,?,?" element_type="i64" />
			<output>
				<port id="0" precision="I64" names="batched_points">
					<dim>-1</dim>
					<dim>-1</dim>
					<dim>-1</dim>
					<dim>-1</dim>
				</port>
			</output>
		</layer>
		<layer id="0" name="batched_point_labels" type="Parameter" version="opset1">
			<data shape="?,?,?" element_type="i64" />
			<output>
				<port id="0" precision="I64" names="batched_point_labels">
					<dim>-1</dim>
					<dim>-1</dim>
					<dim>-1</dim>
				</port>
			</output>
		</layer>
		<layer id="3" name="__module.mask_decoder/aten::unsqueeze/Unsqueeze_compressed" type="Const" version="opset1">
			<data element_type="f16" shape="1, 5, 256" offset="0" size="2560" />
			<output>
				<port id="0" precision="FP16" names="1084">
					<dim>1</dim>
					<dim>5</dim>
					<dim>256</dim>
				</port>
			</output>
		</layer>
		<layer id="4" name="__module.mask_decoder/aten::unsqueeze/Unsqueeze" type="Convert" version="opset1">
			<data destination_type="f32" />
			<rt_info>
				<attribute name="decompression" version="0" />
			</rt_info>
			<input>
				<port id="0" precision="FP16">
					<dim>1</dim>
					<dim>5</dim>
					<dim>256</dim>
				</port>
			</input>
			<output>
				<port id="1" precision="FP32">
					<dim>1</dim>
					<dim>5</dim>
					<dim>256</dim>
				</port>
			</output>
		</layer>
		<layer id="5" name="47" type="Const" version="opset1">
			<data element_type="i32" shape="" offset="2560" size="4" />
			<output>
				<port id="0" precision="I32" names="47" />
			</output>
		</layer>
		<layer id="6" name="46" type="Const" version="opset1">
			<data element_type="i32" shape="" offset="2564" size="4" />
			<output>
				<port id="0" precision="I32" names="46" />
			</output>
		</layer>
		<layer id="7" name="aten::select/Gather" type="Gather" version="opset8">
			<data batch_dims="0" />
			<input>
				<port id="0" precision="I64">
					<dim>-1</dim>
					<dim>-1</dim>
					<dim>-1</dim>
					<dim>-1</dim>
				</port>
				<port id="1" precision="I32" />
				<port id="2" precision="I32" />
			</input>
			<output>
				<port id="3" precision="I64" names="48,53">
					<dim>-1</dim>
					<dim>-1</dim>
					<dim>-1</dim>
				</port>
			</output>
		</layer>
		<layer id="8" name="Constant_177558" type="Const" version="opset1">
			<data element_type="i64" shape="1, 1, 1" offset="2568" size="8" />
			<output>
				<port id="0" precision="I64">
					<dim>1</dim>
					<dim>1</dim>
					<dim>1</dim>
				</port>
			</output>
		</layer>
		<layer id="9" name="aten::ge/GreaterEqual" type="GreaterEqual" version="opset1">
			<data auto_broadcast="numpy" />
			<input>
				<port id="0" precision="I64">
					<dim>-1</dim>
					<dim>-1</dim>
					<dim>-1</dim>
				</port>
				<port id="1" precision="I64">
					<dim>1</dim>
					<dim>1</dim>
					<dim>1</dim>
				</port>
			</input>
			<output>
				<port id="2" precision="BOOL" names="50">
					<dim>-1</dim>
					<dim>-1</dim>
					<dim>-1</dim>
				</port>
			</output>
		</layer>
		<layer id="10" name="Constant_177559" type="Const" version="opset1">
			<data element_type="i64" shape="1, 1, 1" offset="2576" size="8" />
			<output>
				<port id="0" precision="I64">
					<dim>1</dim>
					<dim>1</dim>
					<dim>1</dim>
				</port>
			</output>
		</layer>
		<layer id="11" name="aten::mul/Multiply" type="Multiply" version="opset1">
			<data auto_broadcast="numpy" />
			<input>
				<port id="0" precision="I64">
					<dim>-1</dim>
					<dim>-1</dim>
					<dim>-1</dim>
				</port>
				<port id="1" precision="I64">
					<dim>1</dim>
					<dim>1</dim>
					<dim>1</dim>
				</port>
			</input>
			<output>
				<port id="2" precision="I64" names="55">
					<dim>-1</dim>
					<dim>-1</dim>
					<dim>-1</dim>
				</port>
			</output>
		</layer>
		<layer id="12" name="aten::div/Convert" type="Convert" version="opset1">
			<data destination_type="f32" />
			<input>
				<port id="0" precision="I64">
					<dim>-1</dim>
					<dim>-1</dim>
					<dim>-1</dim>
				</port>
			</input>
			<output>
				<port id="1" precision="FP32">
					<dim>-1</dim>
					<dim>-1</dim>
					<dim>-1</dim>
				</port>
			</output>
		</layer>
		<layer id="13" name="aten::size/ShapeOf_1" type="ShapeOf" version="opset3">
			<data output_type="i32" />
			<input>
				<port id="0" precision="FP32">
					<dim>-1</dim>
					<dim>-1</dim>
					<dim>-1</dim>
					<dim>-1</dim>
				</port>
			</input>
			<output>
				<port id="1" precision="I32">
					<dim>4</dim>
				</port>
			</output>
		</layer>
		<layer id="14" name="16" type="Const" version="opset1">
			<data element_type="i32" shape="" offset="2564" size="4" />
			<rt_info>
				<attribute name="precise" version="0" />
			</rt_info>
			<output>
				<port id="0" precision="I32" names="16" />
			</output>
		</layer>
		<layer id="15" name="aten::size/Constant" type="Const" version="opset1">
			<data element_type="i32" shape="" offset="2560" size="4" />
			<rt_info>
				<attribute name="precise" version="0" />
			</rt_info>
			<output>
				<port id="0" precision="I32" />
			</output>
		</layer>
		<layer id="16" name="aten::size/Gather" type="Gather" version="opset8">
			<data batch_dims="0" />
			<input>
				<port id="0" precision="I32">
					<dim>4</dim>
				</port>
				<port id="1" precision="I32" />
				<port id="2" precision="I32" />
			</input>
			<output>
				<port id="3" precision="I32" names="17,19,20" />
			</output>
		</layer>
		<layer id="17" name="aten::div/Convert_1" type="Convert" version="opset1">
			<data destination_type="f32" />
			<input>
				<port id="0" precision="I32" />
			</input>
			<output>
				<port id="1" precision="FP32" />
			</output>
		</layer>
		<layer id="18" name="aten::div/Divide" type="Divide" version="opset1">
			<data auto_broadcast="numpy" m_pythondiv="true" />
			<input>
				<port id="0" precision="FP32">
					<dim>-1</dim>
					<dim>-1</dim>
					<dim>-1</dim>
				</port>
				<port id="1" precision="FP32" />
			</input>
			<output>
				<port id="2" precision="FP32" names="56">
					<dim>-1</dim>
					<dim>-1</dim>
					<dim>-1</dim>
				</port>
			</output>
		</layer>
		<layer id="19" name="57_compressed" type="Const" version="opset1">
			<data element_type="f16" shape="" offset="2584" size="2" />
			<output>
				<port id="0" precision="FP16" names="57" />
			</output>
		</layer>
		<layer id="20" name="57" type="Convert" version="opset1">
			<data destination_type="f32" />
			<rt_info>
				<attribute name="decompression" version="0" />
			</rt_info>
			<input>
				<port id="0" precision="FP16" />
			</input>
			<output>
				<port id="1" precision="FP32" />
			</output>
		</layer>
		<layer id="21" name="aten::where/Select" type="Select" version="opset1">
			<data auto_broadcast="numpy" />
			<input>
				<port id="0" precision="BOOL">
					<dim>-1</dim>
					<dim>-1</dim>
					<dim>-1</dim>
				</port>
				<port id="1" precision="FP32">
					<dim>-1</dim>
					<dim>-1</dim>
					<dim>-1</dim>
				</port>
				<port id="2" precision="FP32" />
			</input>
			<output>
				<port id="3" precision="FP32" names="58">
					<dim>-1</dim>
					<dim>-1</dim>
					<dim>-1</dim>
				</port>
			</output>
		</layer>
		<layer id="22" name="73" type="Const" version="opset1">
			<data element_type="i32" shape="" offset="2586" size="4" />
			<output>
				<port id="0" precision="I32" names="73" />
			</output>
		</layer>
		<layer id="23" name="Unsqueeze_128361" type="Unsqueeze" version="opset1">
			<input>
				<port id="0" precision="FP32">
					<dim>-1</dim>
					<dim>-1</dim>
					<dim>-1</dim>
				</port>
				<port id="1" precision="I32" />
			</input>
			<output>
				<port id="2" precision="FP32">
					<dim>-1</dim>
					<dim>-1</dim>
					<dim>-1</dim>
					<dim>1</dim>
				</port>
			</output>
		</layer>
		<layer id="24" name="60" type="Const" version="opset1">
			<data element_type="i32" shape="" offset="2590" size="4" />
			<output>
				<port id="0" precision="I32" names="60" />
			</output>
		</layer>
		<layer id="25" name="59" type="Const" version="opset1">
			<data element_type="i32" shape="" offset="2564" size="4" />
			<output>
				<port id="0" precision="I32" names="59" />
			</output>
		</layer>
		<layer id="26" name="aten::select/Gather_2" type="Gather" version="opset8">
			<data batch_dims="0" />
			<input>
				<port id="0" precision="I64">
					<dim>-1</dim>
					<dim>-1</dim>
					<dim>-1</dim>
					<dim>-1</dim>
				</port>
				<port id="1" precision="I32" />
				<port id="2" precision="I32" />
			</input>
			<output>
				<port id="3" precision="I64" names="61,66">
					<dim>-1</dim>
					<dim>-1</dim>
					<dim>-1</dim>
				</port>
			</output>
		</layer>
		<layer id="27" name="Constant_177560" type="Const" version="opset1">
			<data element_type="i64" shape="1, 1, 1" offset="2568" size="8" />
			<output>
				<port id="0" precision="I64">
					<dim>1</dim>
					<dim>1</dim>
					<dim>1</dim>
				</port>
			</output>
		</layer>
		<layer id="28" name="aten::ge/GreaterEqual_1" type="GreaterEqual" version="opset1">
			<data auto_broadcast="numpy" />
			<input>
				<port id="0" precision="I64">
					<dim>-1</dim>
					<dim>-1</dim>
					<dim>-1</dim>
				</port>
				<port id="1" precision="I64">
					<dim>1</dim>
					<dim>1</dim>
					<dim>1</dim>
				</port>
			</input>
			<output>
				<port id="2" precision="BOOL" names="63">
					<dim>-1</dim>
					<dim>-1</dim>
					<dim>-1</dim>
				</port>
			</output>
		</layer>
		<layer id="29" name="Constant_177561" type="Const" version="opset1">
			<data element_type="i64" shape="1, 1, 1" offset="2576" size="8" />
			<output>
				<port id="0" precision="I64">
					<dim>1</dim>
					<dim>1</dim>
					<dim>1</dim>
				</port>
			</output>
		</layer>
		<layer id="30" name="aten::mul/Multiply_1" type="Multiply" version="opset1">
			<data auto_broadcast="numpy" />
			<input>
				<port id="0" precision="I64">
					<dim>-1</dim>
					<dim>-1</dim>
					<dim>-1</dim>
				</port>
				<port id="1" precision="I64">
					<dim>1</dim>
					<dim>1</dim>
					<dim>1</dim>
				</port>
			</input>
			<output>
				<port id="2" precision="I64" names="68">
					<dim>-1</dim>
					<dim>-1</dim>
					<dim>-1</dim>
				</port>
			</output>
		</layer>
		<layer id="31" name="aten::div/Convert_2" type="Convert" version="opset1">
			<data destination_type="f32" />
			<input>
				<port id="0" precision="I64">
					<dim>-1</dim>
					<dim>-1</dim>
					<dim>-1</dim>
				</port>
			</input>
			<output>
				<port id="1" precision="FP32">
					<dim>-1</dim>
					<dim>-1</dim>
					<dim>-1</dim>
				</port>
			</output>
		</layer>
		<layer id="32" name="11" type="Const" version="opset1">
			<data element_type="i32" shape="" offset="2594" size="4" />
			<rt_info>
				<attribute name="precise" version="0" />
			</rt_info>
			<output>
				<port id="0" precision="I32" names="11" />
			</output>
		</layer>
		<layer id="33" name="aten::size/Constant_1" type="Const" version="opset1">
			<data element_type="i32" shape="" offset="2560" size="4" />
			<rt_info>
				<attribute name="precise" version="0" />
			</rt_info>
			<output>
				<port id="0" precision="I32" />
			</output>
		</layer>
		<layer id="34" name="aten::size/Gather_1" type="Gather" version="opset8">
			<data batch_dims="0" />
			<input>
				<port id="0" precision="I32">
					<dim>4</dim>
				</port>
				<port id="1" precision="I32" />
				<port id="2" precision="I32" />
			</input>
			<output>
				<port id="3" precision="I32" names="12,14,15" />
			</output>
		</layer>
		<layer id="35" name="aten::div/Convert_3" type="Convert" version="opset1">
			<data destination_type="f32" />
			<input>
				<port id="0" precision="I32" />
			</input>
			<output>
				<port id="1" precision="FP32" />
			</output>
		</layer>
		<layer id="36" name="aten::div/Divide_1" type="Divide" version="opset1">
			<data auto_broadcast="numpy" m_pythondiv="true" />
			<input>
				<port id="0" precision="FP32">
					<dim>-1</dim>
					<dim>-1</dim>
					<dim>-1</dim>
				</port>
				<port id="1" precision="FP32" />
			</input>
			<output>
				<port id="2" precision="FP32" names="69">
					<dim>-1</dim>
					<dim>-1</dim>
					<dim>-1</dim>
				</port>
			</output>
		</layer>
		<layer id="37" name="70_compressed" type="Const" version="opset1">
			<data element_type="f16" shape="" offset="2584" size="2" />
			<output>
				<port id="0" precision="FP16" names="70" />
			</output>
		</layer>
		<layer id="38" name="70" type="Convert" version="opset1">
			<data destination_type="f32" />
			<rt_info>
				<attribute name="decompression" version="0" />
			</rt_info>
			<input>
				<port id="0" precision="FP16" />
			</input>
			<output>
				<port id="1" precision="FP32" />
			</output>
		</layer>
		<layer id="39" name="aten::where/Select_1" type="Select" version="opset1">
			<data auto_broadcast="numpy" />
			<input>
				<port id="0" precision="BOOL">
					<dim>-1</dim>
					<dim>-1</dim>
					<dim>-1</dim>
				</port>
				<port id="1" precision="FP32">
					<dim>-1</dim>
					<dim>-1</dim>
					<dim>-1</dim>
				</port>
				<port id="2" precision="FP32" />
			</input>
			<output>
				<port id="3" precision="FP32" names="71">
					<dim>-1</dim>
					<dim>-1</dim>
					<dim>-1</dim>
				</port>
			</output>
		</layer>
		<layer id="40" name="Unsqueeze_128362" type="Unsqueeze" version="opset1">
			<input>
				<port id="0" precision="FP32">
					<dim>-1</dim>
					<dim>-1</dim>
					<dim>-1</dim>
				</port>
				<port id="1" precision="I32" />
			</input>
			<output>
				<port id="2" precision="FP32">
					<dim>-1</dim>
					<dim>-1</dim>
					<dim>-1</dim>
					<dim>1</dim>
				</port>
			</output>
		</layer>
		<layer id="41" name="aten::stack" type="Concat" version="opset1">
			<data axis="-1" />
			<input>
				<port id="0" precision="FP32">
					<dim>-1</dim>
					<dim>-1</dim>
					<dim>-1</dim>
					<dim>1</dim>
				</port>
				<port id="1" precision="FP32">
					<dim>-1</dim>
					<dim>-1</dim>
					<dim>-1</dim>
					<dim>1</dim>
				</port>
			</input>
			<output>
				<port id="2" precision="FP32" names="74,input.151">
					<dim>-1</dim>
					<dim>-1</dim>
					<dim>-1</dim>
					<dim>2</dim>
				</port>
			</output>
		</layer>
		<layer id="42" name="aten::pad/ConvertLike" type="Const" version="opset1">
			<data element_type="i32" shape="2" offset="2568" size="8" />
			<rt_info>
				<attribute name="precise" version="0" />
			</rt_info>
			<output>
				<port id="0" precision="I32">
					<dim>2</dim>
				</port>
			</output>
		</layer>
		<layer id="43" name="Unsqueeze_131468" type="Const" version="opset1">
			<data element_type="i32" shape="1" offset="2560" size="4" />
			<rt_info>
				<attribute name="precise" version="0" />
			</rt_info>
			<output>
				<port id="0" precision="I32">
					<dim>1</dim>
				</port>
			</output>
		</layer>
		<layer id="44" name="Unsqueeze_131469" type="Const" version="opset1">
			<data element_type="i32" shape="1" offset="2560" size="4" />
			<rt_info>
				<attribute name="precise" version="0" />
			</rt_info>
			<output>
				<port id="0" precision="I32">
					<dim>1</dim>
				</port>
			</output>
		</layer>
		<layer id="45" name="Unsqueeze_131470" type="Const" version="opset1">
			<data element_type="i32" shape="1" offset="2560" size="4" />
			<rt_info>
				<attribute name="precise" version="0" />
			</rt_info>
			<output>
				<port id="0" precision="I32">
					<dim>1</dim>
				</port>
			</output>
		</layer>
		<layer id="46" name="75" type="Const" version="opset1">
			<data element_type="i32" shape="" offset="2598" size="4" />
			<rt_info>
				<attribute name="precise" version="0" />
			</rt_info>
			<output>
				<port id="0" precision="I32" names="75" />
			</output>
		</layer>
		<layer id="47" name="aten::size/ShapeOf_3" type="ShapeOf" version="opset3">
			<data output_type="i32" />
			<input>
				<port id="0" precision="I64">
					<dim>-1</dim>
					<dim>-1</dim>
					<dim>-1</dim>
					<dim>-1</dim>
				</port>
			</input>
			<output>
				<port id="1" precision="I32">
					<dim>4</dim>
				</port>
			</output>
		</layer>
		<layer id="48" name="43" type="Const" version="opset1">
			<data element_type="i32" shape="" offset="2594" size="4" />
			<rt_info>
				<attribute name="precise" version="0" />
			</rt_info>
			<output>
				<port id="0" precision="I32" names="43" />
			</output>
		</layer>
		<layer id="49" name="aten::size/Constant_2" type="Const" version="opset1">
			<data element_type="i32" shape="" offset="2560" size="4" />
			<rt_info>
				<attribute name="precise" version="0" />
			</rt_info>
			<output>
				<port id="0" precision="I32" />
			</output>
		</layer>
		<layer id="50" name="aten::size/Gather_2" type="Gather" version="opset8">
			<data batch_dims="0" />
			<input>
				<port id="0" precision="I32">
					<dim>4</dim>
				</port>
				<port id="1" precision="I32" />
				<port id="2" precision="I32" />
			</input>
			<output>
				<port id="3" precision="I32" names="44" />
			</output>
		</layer>
		<layer id="51" name="aten::rsub/Subtract" type="Subtract" version="opset1">
			<data auto_broadcast="numpy" />
			<input>
				<port id="0" precision="I32" />
				<port id="1" precision="I32" />
			</input>
			<output>
				<port id="2" precision="I32" names="77,78,88,89" />
			</output>
		</layer>
		<layer id="52" name="Constant_131467" type="Const" version="opset1">
			<data element_type="i32" shape="" offset="2560" size="4" />
			<rt_info>
				<attribute name="precise" version="0" />
			</rt_info>
			<output>
				<port id="0" precision="I32" />
			</output>
		</layer>
		<layer id="53" name="Unsqueeze_131471" type="Unsqueeze" version="opset1">
			<input>
				<port id="0" precision="I32" />
				<port id="1" precision="I32" />
			</input>
			<output>
				<port id="2" precision="I32">
					<dim>1</dim>
				</port>
			</output>
		</layer>
		<layer id="54" name="Concat_131472" type="Concat" version="opset1">
			<data axis="0" />
			<input>
				<port id="0" precision="I32">
					<dim>1</dim>
				</port>
				<port id="1" precision="I32">
					<dim>1</dim>
				</port>
				<port id="2" precision="I32">
					<dim>1</dim>
				</port>
				<port id="3" precision="I32">
					<dim>1</dim>
				</port>
			</input>
			<output>
				<port id="4" precision="I32">
					<dim>4</dim>
				</port>
			</output>
		</layer>
		<layer id="55" name="aten::pad/Range" type="Const" version="opset1">
			<data element_type="i32" shape="2" offset="2602" size="8" />
			<rt_info>
				<attribute name="precise" version="0" />
			</rt_info>
			<output>
				<port id="0" precision="I32">
					<dim>2</dim>
				</port>
			</output>
		</layer>
		<layer id="56" name="Constant_131481" type="Const" version="opset1">
			<data element_type="i32" shape="" offset="2560" size="4" />
			<rt_info>
				<attribute name="precise" version="0" />
			</rt_info>
			<output>
				<port id="0" precision="I32" />
			</output>
		</layer>
		<layer id="57" name="aten::pad/Gather" type="Gather" version="opset8">
			<data batch_dims="0" />
			<input>
				<port id="0" precision="I32">
					<dim>4</dim>
				</port>
				<port id="1" precision="I32">
					<dim>2</dim>
				</port>
				<port id="2" precision="I32" />
			</input>
			<output>
				<port id="3" precision="I32">
					<dim>2</dim>
				</port>
			</output>
		</layer>
		<layer id="58" name="aten::pad/Concat" type="Concat" version="opset1">
			<data axis="0" />
			<input>
				<port id="0" precision="I32">
					<dim>2</dim>
				</port>
				<port id="1" precision="I32">
					<dim>2</dim>
				</port>
			</input>
			<output>
				<port id="2" precision="I32">
					<dim>4</dim>
				</port>
			</output>
		</layer>
		<layer id="59" name="aten::pad/ConvertLike_9" type="Const" version="opset1">
			<data element_type="i32" shape="2" offset="2568" size="8" />
			<rt_info>
				<attribute name="precise" version="0" />
			</rt_info>
			<output>
				<port id="0" precision="I32">
					<dim>2</dim>
				</port>
			</output>
		</layer>
		<layer id="60" name="aten::pad/Range_4" type="Const" version="opset1">
			<data element_type="i32" shape="2" offset="2610" size="8" />
			<rt_info>
				<attribute name="precise" version="0" />
			</rt_info>
			<output>
				<port id="0" precision="I32">
					<dim>2</dim>
				</port>
			</output>
		</layer>
		<layer id="61" name="Constant_131499" type="Const" version="opset1">
			<data element_type="i32" shape="" offset="2560" size="4" />
			<rt_info>
				<attribute name="precise" version="0" />
			</rt_info>
			<output>
				<port id="0" precision="I32" />
			</output>
		</layer>
		<layer id="62" name="aten::pad/Gather_5" type="Gather" version="opset8">
			<data batch_dims="0" />
			<input>
				<port id="0" precision="I32">
					<dim>4</dim>
				</port>
				<port id="1" precision="I32">
					<dim>2</dim>
				</port>
				<port id="2" precision="I32" />
			</input>
			<output>
				<port id="3" precision="I32">
					<dim>2</dim>
				</port>
			</output>
		</layer>
		<layer id="63" name="aten::pad/Concat_10" type="Concat" version="opset1">
			<data axis="0" />
			<input>
				<port id="0" precision="I32">
					<dim>2</dim>
				</port>
				<port id="1" precision="I32">
					<dim>2</dim>
				</port>
			</input>
			<output>
				<port id="2" precision="I32">
					<dim>4</dim>
				</port>
			</output>
		</layer>
		<layer id="64" name="aten::pad/ConvertLike_11_compressed" type="Const" version="opset1">
			<data element_type="f16" shape="" offset="2584" size="2" />
			<output>
				<port id="0" precision="FP16" />
			</output>
		</layer>
		<layer id="65" name="aten::pad/ConvertLike_11" type="Convert" version="opset1">
			<data destination_type="f32" />
			<rt_info>
				<attribute name="decompression" version="0" />
			</rt_info>
			<input>
				<port id="0" precision="FP16" />
			</input>
			<output>
				<port id="1" precision="FP32" />
			</output>
		</layer>
		<layer id="66" name="aten::pad" type="Pad" version="opset1">
			<data pad_mode="constant" />
			<input>
				<port id="0" precision="FP32">
					<dim>-1</dim>
					<dim>-1</dim>
					<dim>-1</dim>
					<dim>2</dim>
				</port>
				<port id="1" precision="I32">
					<dim>4</dim>
				</port>
				<port id="2" precision="I32">
					<dim>4</dim>
				</port>
				<port id="3" precision="FP32" />
			</input>
			<output>
				<port id="4" precision="FP32" names="85,rescaled_batched_points">
					<dim>-1</dim>
					<dim>-1</dim>
					<dim>-1</dim>
					<dim>2</dim>
				</port>
			</output>
		</layer>
		<layer id="67" name="31" type="Const" version="opset1">
			<data element_type="i32" shape="" offset="2560" size="4" />
			<rt_info>
				<attribute name="precise" version="0" />
			</rt_info>
			<output>
				<port id="0" precision="I32" names="31" />
			</output>
		</layer>
		<layer id="68" name="aten::size/Constant_3" type="Const" version="opset1">
			<data element_type="i32" shape="" offset="2560" size="4" />
			<rt_info>
				<attribute name="precise" version="0" />
			</rt_info>
			<output>
				<port id="0" precision="I32" />
			</output>
		</layer>
		<layer id="69" name="aten::size/Gather_3" type="Gather" version="opset8">
			<data batch_dims="0" />
			<input>
				<port id="0" precision="I32">
					<dim>4</dim>
				</port>
				<port id="1" precision="I32" />
				<port id="2" precision="I32" />
			</input>
			<output>
				<port id="3" precision="I32" names="32,34,35,36" />
			</output>
		</layer>
		<layer id="70" name="37" type="Const" version="opset1">
			<data element_type="i32" shape="" offset="2590" size="4" />
			<rt_info>
				<attribute name="precise" version="0" />
			</rt_info>
			<output>
				<port id="0" precision="I32" names="37" />
			</output>
		</layer>
		<layer id="71" name="aten::size/Constant_4" type="Const" version="opset1">
			<data element_type="i32" shape="" offset="2560" size="4" />
			<rt_info>
				<attribute name="precise" version="0" />
			</rt_info>
			<output>
				<port id="0" precision="I32" />
			</output>
		</layer>
		<layer id="72" name="aten::size/Gather_4" type="Gather" version="opset8">
			<data batch_dims="0" />
			<input>
				<port id="0" precision="I32">
					<dim>4</dim>
				</port>
				<port id="1" precision="I32" />
				<port id="2" precision="I32" />
			</input>
			<output>
				<port id="3" precision="I32" names="38,40,41,42" />
			</output>
		</layer>
		<layer id="73" name="aten::mul/Multiply_2" type="Multiply" version="opset1">
			<data auto_broadcast="numpy" />
			<input>
				<port id="0" precision="I32" />
				<port id="1" precision="I32" />
			</input>
			<output>
				<port id="2" precision="I32" names="101,102,95,96" />
			</output>
		</layer>
		<layer id="74" name="Constant_151327" type="Const" version="opset1">
			<data element_type="i64" shape="1" offset="2618" size="8" />
			<rt_info>
				<attribute name="precise" version="0" />
			</rt_info>
			<output>
				<port id="0" precision="I64">
					<dim>1</dim>
				</port>
			</output>
		</layer>
		<layer id="75" name="prim::ListConstruct/Reshape" type="Reshape" version="opset1">
			<data special_zero="false" />
			<input>
				<port id="0" precision="I32" />
				<port id="1" precision="I64">
					<dim>1</dim>
				</port>
			</input>
			<output>
				<port id="2" precision="I32">
					<dim>1</dim>
				</port>
			</output>
		</layer>
		<layer id="76" name="prim::ListConstruct/Reshape_0" type="Const" version="opset1">
			<data element_type="i32" shape="1" offset="2598" size="4" />
			<rt_info>
				<attribute name="precise" version="0" />
			</rt_info>
			<output>
				<port id="0" precision="I32">
					<dim>1</dim>
				</port>
			</output>
		</layer>
		<layer id="77" name="prim::ListConstruct/Reshape_1" type="Const" version="opset1">
			<data element_type="i32" shape="1" offset="2594" size="4" />
			<rt_info>
				<attribute name="precise" version="0" />
			</rt_info>
			<output>
				<port id="0" precision="I32">
					<dim>1</dim>
				</port>
			</output>
		</layer>
		<layer id="78" name="prim::ListConstruct/Concat" type="Concat" version="opset1">
			<data axis="0" />
			<input>
				<port id="0" precision="I32">
					<dim>1</dim>
				</port>
				<port id="1" precision="I32">
					<dim>1</dim>
				</port>
				<port id="2" precision="I32">
					<dim>1</dim>
				</port>
			</input>
			<output>
				<port id="3" precision="I32" names="99">
					<dim>3</dim>
				</port>
			</output>
		</layer>
		<layer id="79" name="aten::reshape/Reshape" type="Reshape" version="opset1">
			<data special_zero="false" />
			<input>
				<port id="0" precision="FP32">
					<dim>-1</dim>
					<dim>-1</dim>
					<dim>-1</dim>
					<dim>2</dim>
				</port>
				<port id="1" precision="I32">
					<dim>3</dim>
				</port>
			</input>
			<output>
				<port id="2" precision="FP32" names="100,points">
					<dim>-1</dim>
					<dim>6</dim>
					<dim>2</dim>
				</port>
			</output>
		</layer>
		<layer id="80" name="Constant_177562_compressed" type="Const" version="opset1">
			<data element_type="f16" shape="1, 1, 1" offset="2626" size="2" />
			<output>
				<port id="0" precision="FP16">
					<dim>1</dim>
					<dim>1</dim>
					<dim>1</dim>
				</port>
			</output>
		</layer>
		<layer id="81" name="Constant_177562" type="Convert" version="opset1">
			<data destination_type="f32" />
			<rt_info>
				<attribute name="decompression" version="0" />
			</rt_info>
			<input>
				<port id="0" precision="FP16">
					<dim>1</dim>
					<dim>1</dim>
					<dim>1</dim>
				</port>
			</input>
			<output>
				<port id="1" precision="FP32">
					<dim>1</dim>
					<dim>1</dim>
					<dim>1</dim>
				</port>
			</output>
		</layer>
		<layer id="82" name="__module.prompt_encoder/aten::add/Add" type="Add" version="opset1">
			<data auto_broadcast="numpy" />
			<input>
				<port id="0" precision="FP32">
					<dim>-1</dim>
					<dim>6</dim>
					<dim>2</dim>
				</port>
				<port id="1" precision="FP32">
					<dim>1</dim>
					<dim>1</dim>
					<dim>1</dim>
				</port>
			</input>
			<output>
				<port id="2" precision="FP32" names="924,coords_input">
					<dim>-1</dim>
					<dim>6</dim>
					<dim>2</dim>
				</port>
			</output>
		</layer>
		<layer id="83" name="Constant_151330" type="Const" version="opset1">
			<data element_type="i64" shape="1" offset="2618" size="8" />
			<rt_info>
				<attribute name="precise" version="0" />
			</rt_info>
			<output>
				<port id="0" precision="I64">
					<dim>1</dim>
				</port>
			</output>
		</layer>
		<layer id="84" name="GatherAssign_121363/Reshape_1" type="Reshape" version="opset1">
			<data special_zero="false" />
			<input>
				<port id="0" precision="FP32">
					<dim>-1</dim>
					<dim>6</dim>
					<dim>2</dim>
				</port>
				<port id="1" precision="I64">
					<dim>1</dim>
				</port>
			</input>
			<output>
				<port id="2" precision="FP32">
					<dim>-1</dim>
				</port>
			</output>
		</layer>
		<layer id="85" name="Constant_139990" type="Const" version="opset1">
			<data element_type="i64" shape="" offset="2568" size="8" />
			<output>
				<port id="0" precision="I64" />
			</output>
		</layer>
		<layer id="86" name="GatherAssign_121363/ShapeOf" type="ShapeOf" version="opset3">
			<data output_type="i64" />
			<input>
				<port id="0" precision="FP32">
					<dim>-1</dim>
					<dim>6</dim>
					<dim>2</dim>
				</port>
			</input>
			<output>
				<port id="1" precision="I64">
					<dim>3</dim>
				</port>
			</output>
		</layer>
		<layer id="87" name="GatherAssign_121363/ReduceProd" type="ReduceProd" version="opset1">
			<data keep_dims="false" />
			<input>
				<port id="0" precision="I64">
					<dim>3</dim>
				</port>
				<port id="1" precision="I64" />
			</input>
			<output>
				<port id="2" precision="I64" />
			</output>
		</layer>
		<layer id="88" name="Constant_139991" type="Const" version="opset1">
			<data element_type="i64" shape="" offset="2628" size="8" />
			<output>
				<port id="0" precision="I64" />
			</output>
		</layer>
		<layer id="89" name="GatherAssign_121363/Range" type="Range" version="opset4">
			<data output_type="i64" />
			<input>
				<port id="0" precision="I64" />
				<port id="1" precision="I64" />
				<port id="2" precision="I64" />
			</input>
			<output>
				<port id="3" precision="I64">
					<dim>-1</dim>
				</port>
			</output>
		</layer>
		<layer id="90" name="GatherAssign_121363/Reshape" type="Reshape" version="opset1">
			<data special_zero="false" />
			<input>
				<port id="0" precision="I64">
					<dim>-1</dim>
				</port>
				<port id="1" precision="I64">
					<dim>3</dim>
				</port>
			</input>
			<output>
				<port id="2" precision="I64">
					<dim>-1</dim>
					<dim>6</dim>
					<dim>2</dim>
				</port>
			</output>
		</layer>
		<layer id="91" name="__module.prompt_encoder/aten::slice/Unsqueeze" type="Const" version="opset1">
			<data element_type="i32" shape="1" offset="2560" size="4" />
			<rt_info>
				<attribute name="precise" version="0" />
			</rt_info>
			<output>
				<port id="0" precision="I32">
					<dim>1</dim>
				</port>
			</output>
		</layer>
		<layer id="92" name="__module.prompt_encoder/aten::slice/Unsqueeze_1" type="Const" version="opset1">
			<data element_type="i64" shape="1" offset="2636" size="8" />
			<rt_info>
				<attribute name="precise" version="0" />
			</rt_info>
			<output>
				<port id="0" precision="I64">
					<dim>1</dim>
				</port>
			</output>
		</layer>
		<layer id="93" name="__module.prompt_encoder/aten::slice/Unsqueeze_2" type="Const" version="opset1">
			<data element_type="i32" shape="1" offset="2590" size="4" />
			<rt_info>
				<attribute name="precise" version="0" />
			</rt_info>
			<output>
				<port id="0" precision="I32">
					<dim>1</dim>
				</port>
			</output>
		</layer>
		<layer id="94" name="GatherAssign_121363/Slice" type="StridedSlice" version="opset1">
			<data begin_mask="0" end_mask="0" new_axis_mask="" shrink_axis_mask="" ellipsis_mask="" />
			<input>
				<port id="0" precision="I64">
					<dim>-1</dim>
					<dim>6</dim>
					<dim>2</dim>
				</port>
				<port id="1" precision="I32">
					<dim>1</dim>
				</port>
				<port id="2" precision="I64">
					<dim>1</dim>
				</port>
				<port id="3" precision="I32">
					<dim>1</dim>
				</port>
			</input>
			<output>
				<port id="4" precision="I64">
					<dim>-1</dim>
					<dim>6</dim>
					<dim>2</dim>
				</port>
			</output>
		</layer>
		<layer id="95" name="Constant_173901" type="Const" version="opset1">
			<data element_type="i32" shape="2" offset="2568" size="8" />
			<rt_info>
				<attribute name="precise" version="0" />
			</rt_info>
			<output>
				<port id="0" precision="I32">
					<dim>2</dim>
				</port>
			</output>
		</layer>
		<layer id="96" name="Constant_173904" type="Const" version="opset1">
			<data element_type="i64" shape="2" offset="2644" size="16" />
			<rt_info>
				<attribute name="precise" version="0" />
			</rt_info>
			<output>
				<port id="0" precision="I64">
					<dim>2</dim>
				</port>
			</output>
		</layer>
		<layer id="97" name="Constant_173907" type="Const" version="opset1">
			<data element_type="i32" shape="2" offset="2660" size="8" />
			<rt_info>
				<attribute name="precise" version="0" />
			</rt_info>
			<output>
				<port id="0" precision="I32">
					<dim>2</dim>
				</port>
			</output>
		</layer>
		<layer id="98" name="GatherAssign_121363/Slice_0" type="StridedSlice" version="opset1">
			<data begin_mask="1, 0" end_mask="1, 0" new_axis_mask="" shrink_axis_mask="" ellipsis_mask="" />
			<input>
				<port id="0" precision="I64">
					<dim>-1</dim>
					<dim>6</dim>
					<dim>2</dim>
				</port>
				<port id="1" precision="I32">
					<dim>2</dim>
				</port>
				<port id="2" precision="I64">
					<dim>2</dim>
				</port>
				<port id="3" precision="I32">
					<dim>2</dim>
				</port>
			</input>
			<output>
				<port id="4" precision="I64">
					<dim>-1</dim>
					<dim>6</dim>
					<dim>2</dim>
				</port>
			</output>
		</layer>
		<layer id="99" name="910" type="Const" version="opset1">
			<data element_type="i32" shape="" offset="2560" size="4" />
			<output>
				<port id="0" precision="I32" names="910" />
			</output>
		</layer>
		<layer id="100" name="908" type="Const" version="opset1">
			<data element_type="i32" shape="" offset="2594" size="4" />
			<output>
				<port id="0" precision="I32" names="908" />
			</output>
		</layer>
		<layer id="101" name="GatherAssign_121363/Gather" type="Gather" version="opset8">
			<data batch_dims="0" />
			<input>
				<port id="0" precision="I64">
					<dim>-1</dim>
					<dim>6</dim>
					<dim>2</dim>
				</port>
				<port id="1" precision="I32" />
				<port id="2" precision="I32" />
			</input>
			<output>
				<port id="3" precision="I64">
					<dim>-1</dim>
					<dim>6</dim>
				</port>
			</output>
		</layer>
		<layer id="102" name="Constant_139993" type="Const" version="opset1">
			<data element_type="i64" shape="2" offset="2668" size="16" />
			<rt_info>
				<attribute name="precise" version="0" />
			</rt_info>
			<output>
				<port id="0" precision="I64">
					<dim>2</dim>
				</port>
			</output>
		</layer>
		<layer id="103" name="GatherAssign_121363/Reshape_2" type="Reshape" version="opset1">
			<data special_zero="false" />
			<input>
				<port id="0" precision="I64">
					<dim>-1</dim>
					<dim>6</dim>
				</port>
				<port id="1" precision="I64">
					<dim>2</dim>
				</port>
			</input>
			<output>
				<port id="2" precision="I64">
					<dim>-1</dim>
					<dim>1</dim>
				</port>
			</output>
		</layer>
		<layer id="104" name="__module.prompt_encoder/aten::slice/Unsqueeze_8" type="Const" version="opset1">
			<data element_type="i32" shape="1" offset="2560" size="4" />
			<rt_info>
				<attribute name="precise" version="0" />
			</rt_info>
			<output>
				<port id="0" precision="I32">
					<dim>1</dim>
				</port>
			</output>
		</layer>
		<layer id="105" name="__module.prompt_encoder/aten::slice/Unsqueeze_9" type="Const" version="opset1">
			<data element_type="i64" shape="1" offset="2636" size="8" />
			<rt_info>
				<attribute name="precise" version="0" />
			</rt_info>
			<output>
				<port id="0" precision="I64">
					<dim>1</dim>
				</port>
			</output>
		</layer>
		<layer id="106" name="__module.prompt_encoder/aten::slice/Unsqueeze_10" type="Const" version="opset1">
			<data element_type="i32" shape="1" offset="2590" size="4" />
			<rt_info>
				<attribute name="precise" version="0" />
			</rt_info>
			<output>
				<port id="0" precision="I32">
					<dim>1</dim>
				</port>
			</output>
		</layer>
		<layer id="107" name="__module.prompt_encoder/aten::slice/Slice" type="StridedSlice" version="opset1">
			<data begin_mask="0" end_mask="0" new_axis_mask="" shrink_axis_mask="" ellipsis_mask="" />
			<input>
				<port id="0" precision="FP32">
					<dim>-1</dim>
					<dim>6</dim>
					<dim>2</dim>
				</port>
				<port id="1" precision="I32">
					<dim>1</dim>
				</port>
				<port id="2" precision="I64">
					<dim>1</dim>
				</port>
				<port id="3" precision="I32">
					<dim>1</dim>
				</port>
			</input>
			<output>
				<port id="4" precision="FP32" names="926,930_1">
					<dim>-1</dim>
					<dim>6</dim>
					<dim>2</dim>
				</port>
			</output>
		</layer>
		<layer id="108" name="Constant_173914" type="Const" version="opset1">
			<data element_type="i32" shape="2" offset="2568" size="8" />
			<rt_info>
				<attribute name="precise" version="0" />
			</rt_info>
			<output>
				<port id="0" precision="I32">
					<dim>2</dim>
				</port>
			</output>
		</layer>
		<layer id="109" name="Constant_173917" type="Const" version="opset1">
			<data element_type="i64" shape="2" offset="2644" size="16" />
			<rt_info>
				<attribute name="precise" version="0" />
			</rt_info>
			<output>
				<port id="0" precision="I64">
					<dim>2</dim>
				</port>
			</output>
		</layer>
		<layer id="110" name="Constant_173920" type="Const" version="opset1">
			<data element_type="i32" shape="2" offset="2660" size="8" />
			<rt_info>
				<attribute name="precise" version="0" />
			</rt_info>
			<output>
				<port id="0" precision="I32">
					<dim>2</dim>
				</port>
			</output>
		</layer>
		<layer id="111" name="__module.prompt_encoder/aten::slice/Slice_1" type="StridedSlice" version="opset1">
			<data begin_mask="1, 0" end_mask="1, 0" new_axis_mask="" shrink_axis_mask="" ellipsis_mask="" />
			<input>
				<port id="0" precision="FP32">
					<dim>-1</dim>
					<dim>6</dim>
					<dim>2</dim>
				</port>
				<port id="1" precision="I32">
					<dim>2</dim>
				</port>
				<port id="2" precision="I64">
					<dim>2</dim>
				</port>
				<port id="3" precision="I32">
					<dim>2</dim>
				</port>
			</input>
			<output>
				<port id="4" precision="FP32" names="927,931_1">
					<dim>-1</dim>
					<dim>6</dim>
					<dim>2</dim>
				</port>
			</output>
		</layer>
		<layer id="112" name="__module.prompt_encoder/aten::select/Gather" type="Gather" version="opset8">
			<data batch_dims="0" />
			<input>
				<port id="0" precision="FP32">
					<dim>-1</dim>
					<dim>6</dim>
					<dim>2</dim>
				</port>
				<port id="1" precision="I32" />
				<port id="2" precision="I32" />
			</input>
			<output>
				<port id="3" precision="FP32" names="928,932_1">
					<dim>-1</dim>
					<dim>6</dim>
				</port>
			</output>
		</layer>
		<layer id="113" name="Constant_177563_compressed" type="Const" version="opset1">
			<data element_type="f16" shape="1, 1" offset="2684" size="2" />
			<output>
				<port id="0" precision="FP16">
					<dim>1</dim>
					<dim>1</dim>
				</port>
			</output>
		</layer>
		<layer id="114" name="Constant_177563" type="Convert" version="opset1">
			<data destination_type="f32" />
			<rt_info>
				<attribute name="decompression" version="0" />
			</rt_info>
			<input>
				<port id="0" precision="FP16">
					<dim>1</dim>
					<dim>1</dim>
				</port>
			</input>
			<output>
				<port id="1" precision="FP32">
					<dim>1</dim>
					<dim>1</dim>
				</port>
			</output>
		</layer>
		<layer id="115" name="__module.prompt_encoder/aten::div/Divide" type="Divide" version="opset1">
			<data auto_broadcast="numpy" m_pythondiv="true" />
			<input>
				<port id="0" precision="FP32">
					<dim>-1</dim>
					<dim>6</dim>
				</port>
				<port id="1" precision="FP32">
					<dim>1</dim>
					<dim>1</dim>
				</port>
			</input>
			<output>
				<port id="2" precision="FP32" names="929">
					<dim>-1</dim>
					<dim>6</dim>
				</port>
			</output>
		</layer>
		<layer id="116" name="__module.prompt_encoder/aten::copy_/ConvertLike" type="ConvertLike" version="opset1">
			<input>
				<port id="0" precision="FP32">
					<dim>-1</dim>
					<dim>6</dim>
				</port>
				<port id="1" precision="FP32">
					<dim>-1</dim>
					<dim>6</dim>
				</port>
			</input>
			<output>
				<port id="2" precision="FP32">
					<dim>-1</dim>
					<dim>6</dim>
				</port>
			</output>
		</layer>
		<layer id="117" name="__module.prompt_encoder/aten::copy_/ShapeOf" type="ShapeOf" version="opset3">
			<data output_type="i64" />
			<input>
				<port id="0" precision="FP32">
					<dim>-1</dim>
					<dim>6</dim>
				</port>
			</input>
			<output>
				<port id="1" precision="I64">
					<dim>2</dim>
				</port>
			</output>
		</layer>
		<layer id="118" name="__module.prompt_encoder/aten::copy_/Broadcast" type="Broadcast" version="opset3">
			<data mode="numpy" />
			<input>
				<port id="0" precision="FP32">
					<dim>-1</dim>
					<dim>6</dim>
				</port>
				<port id="1" precision="I64">
					<dim>2</dim>
				</port>
			</input>
			<output>
				<port id="2" precision="FP32" names="932">
					<dim>-1</dim>
					<dim>6</dim>
				</port>
			</output>
		</layer>
		<layer id="119" name="Constant_151331" type="Const" version="opset1">
			<data element_type="i64" shape="1" offset="2618" size="8" />
			<rt_info>
				<attribute name="precise" version="0" />
			</rt_info>
			<output>
				<port id="0" precision="I64">
					<dim>1</dim>
				</port>
			</output>
		</layer>
		<layer id="120" name="GatherAssign_121363/Reshape_3" type="Reshape" version="opset1">
			<data special_zero="false" />
			<input>
				<port id="0" precision="FP32">
					<dim>-1</dim>
					<dim>6</dim>
				</port>
				<port id="1" precision="I64">
					<dim>1</dim>
				</port>
			</input>
			<output>
				<port id="2" precision="FP32">
					<dim>-1</dim>
				</port>
			</output>
		</layer>
		<layer id="121" name="GatherAssign_121363/ScatterNDUpdate" type="ScatterNDUpdate" version="opset4">
			<input>
				<port id="0" precision="FP32">
					<dim>-1</dim>
				</port>
				<port id="1" precision="I64">
					<dim>-1</dim>
					<dim>1</dim>
				</port>
				<port id="2" precision="FP32">
					<dim>-1</dim>
				</port>
			</input>
			<output>
				<port id="3" precision="FP32">
					<dim>-1</dim>
				</port>
			</output>
		</layer>
		<layer id="122" name="GatherAssign_121363/Reshape_4" type="Reshape" version="opset1">
			<data special_zero="false" />
			<input>
				<port id="0" precision="FP32">
					<dim>-1</dim>
				</port>
				<port id="1" precision="I64">
					<dim>3</dim>
				</port>
			</input>
			<output>
				<port id="2" precision="FP32" names="925_1">
					<dim>-1</dim>
					<dim>6</dim>
					<dim>2</dim>
				</port>
			</output>
		</layer>
		<layer id="123" name="Constant_151332" type="Const" version="opset1">
			<data element_type="i64" shape="1" offset="2618" size="8" />
			<rt_info>
				<attribute name="precise" version="0" />
			</rt_info>
			<output>
				<port id="0" precision="I64">
					<dim>1</dim>
				</port>
			</output>
		</layer>
		<layer id="124" name="GatherAssign_121397/Reshape_1" type="Reshape" version="opset1">
			<data special_zero="false" />
			<input>
				<port id="0" precision="FP32">
					<dim>-1</dim>
					<dim>6</dim>
					<dim>2</dim>
				</port>
				<port id="1" precision="I64">
					<dim>1</dim>
				</port>
			</input>
			<output>
				<port id="2" precision="FP32">
					<dim>-1</dim>
				</port>
			</output>
		</layer>
		<layer id="125" name="Constant_140049" type="Const" version="opset1">
			<data element_type="i64" shape="" offset="2568" size="8" />
			<output>
				<port id="0" precision="I64" />
			</output>
		</layer>
		<layer id="126" name="GatherAssign_121397/ShapeOf" type="ShapeOf" version="opset3">
			<data output_type="i64" />
			<input>
				<port id="0" precision="FP32">
					<dim>-1</dim>
					<dim>6</dim>
					<dim>2</dim>
				</port>
			</input>
			<output>
				<port id="1" precision="I64">
					<dim>3</dim>
				</port>
			</output>
		</layer>
		<layer id="127" name="GatherAssign_121397/ReduceProd" type="ReduceProd" version="opset1">
			<data keep_dims="false" />
			<input>
				<port id="0" precision="I64">
					<dim>3</dim>
				</port>
				<port id="1" precision="I64" />
			</input>
			<output>
				<port id="2" precision="I64" />
			</output>
		</layer>
		<layer id="128" name="Constant_140050" type="Const" version="opset1">
			<data element_type="i64" shape="" offset="2628" size="8" />
			<output>
				<port id="0" precision="I64" />
			</output>
		</layer>
		<layer id="129" name="GatherAssign_121397/Range" type="Range" version="opset4">
			<data output_type="i64" />
			<input>
				<port id="0" precision="I64" />
				<port id="1" precision="I64" />
				<port id="2" precision="I64" />
			</input>
			<output>
				<port id="3" precision="I64">
					<dim>-1</dim>
				</port>
			</output>
		</layer>
		<layer id="130" name="GatherAssign_121397/Reshape" type="Reshape" version="opset1">
			<data special_zero="false" />
			<input>
				<port id="0" precision="I64">
					<dim>-1</dim>
				</port>
				<port id="1" precision="I64">
					<dim>3</dim>
				</port>
			</input>
			<output>
				<port id="2" precision="I64">
					<dim>-1</dim>
					<dim>6</dim>
					<dim>2</dim>
				</port>
			</output>
		</layer>
		<layer id="131" name="__module.prompt_encoder/aten::slice/Unsqueeze_16" type="Const" version="opset1">
			<data element_type="i32" shape="1" offset="2560" size="4" />
			<rt_info>
				<attribute name="precise" version="0" />
			</rt_info>
			<output>
				<port id="0" precision="I32">
					<dim>1</dim>
				</port>
			</output>
		</layer>
		<layer id="132" name="__module.prompt_encoder/aten::slice/Unsqueeze_17" type="Const" version="opset1">
			<data element_type="i64" shape="1" offset="2636" size="8" />
			<rt_info>
				<attribute name="precise" version="0" />
			</rt_info>
			<output>
				<port id="0" precision="I64">
					<dim>1</dim>
				</port>
			</output>
		</layer>
		<layer id="133" name="__module.prompt_encoder/aten::slice/Unsqueeze_18" type="Const" version="opset1">
			<data element_type="i32" shape="1" offset="2590" size="4" />
			<rt_info>
				<attribute name="precise" version="0" />
			</rt_info>
			<output>
				<port id="0" precision="I32">
					<dim>1</dim>
				</port>
			</output>
		</layer>
		<layer id="134" name="GatherAssign_121397/Slice" type="StridedSlice" version="opset1">
			<data begin_mask="0" end_mask="0" new_axis_mask="" shrink_axis_mask="" ellipsis_mask="" />
			<input>
				<port id="0" precision="I64">
					<dim>-1</dim>
					<dim>6</dim>
					<dim>2</dim>
				</port>
				<port id="1" precision="I32">
					<dim>1</dim>
				</port>
				<port id="2" precision="I64">
					<dim>1</dim>
				</port>
				<port id="3" precision="I32">
					<dim>1</dim>
				</port>
			</input>
			<output>
				<port id="4" precision="I64">
					<dim>-1</dim>
					<dim>6</dim>
					<dim>2</dim>
				</port>
			</output>
		</layer>
		<layer id="135" name="Constant_173927" type="Const" version="opset1">
			<data element_type="i32" shape="2" offset="2568" size="8" />
			<rt_info>
				<attribute name="precise" version="0" />
			</rt_info>
			<output>
				<port id="0" precision="I32">
					<dim>2</dim>
				</port>
			</output>
		</layer>
		<layer id="136" name="Constant_173930" type="Const" version="opset1">
			<data element_type="i64" shape="2" offset="2644" size="16" />
			<rt_info>
				<attribute name="precise" version="0" />
			</rt_info>
			<output>
				<port id="0" precision="I64">
					<dim>2</dim>
				</port>
			</output>
		</layer>
		<layer id="137" name="Constant_173933" type="Const" version="opset1">
			<data element_type="i32" shape="2" offset="2660" size="8" />
			<rt_info>
				<attribute name="precise" version="0" />
			</rt_info>
			<output>
				<port id="0" precision="I32">
					<dim>2</dim>
				</port>
			</output>
		</layer>
		<layer id="138" name="GatherAssign_121397/Slice_0" type="StridedSlice" version="opset1">
			<data begin_mask="1, 0" end_mask="1, 0" new_axis_mask="" shrink_axis_mask="" ellipsis_mask="" />
			<input>
				<port id="0" precision="I64">
					<dim>-1</dim>
					<dim>6</dim>
					<dim>2</dim>
				</port>
				<port id="1" precision="I32">
					<dim>2</dim>
				</port>
				<port id="2" precision="I64">
					<dim>2</dim>
				</port>
				<port id="3" precision="I32">
					<dim>2</dim>
				</port>
			</input>
			<output>
				<port id="4" precision="I64">
					<dim>-1</dim>
					<dim>6</dim>
					<dim>2</dim>
				</port>
			</output>
		</layer>
		<layer id="139" name="912" type="Const" version="opset1">
			<data element_type="i32" shape="" offset="2590" size="4" />
			<output>
				<port id="0" precision="I32" names="912" />
			</output>
		</layer>
		<layer id="140" name="GatherAssign_121397/Gather" type="Gather" version="opset8">
			<data batch_dims="0" />
			<input>
				<port id="0" precision="I64">
					<dim>-1</dim>
					<dim>6</dim>
					<dim>2</dim>
				</port>
				<port id="1" precision="I32" />
				<port id="2" precision="I32" />
			</input>
			<output>
				<port id="3" precision="I64">
					<dim>-1</dim>
					<dim>6</dim>
				</port>
			</output>
		</layer>
		<layer id="141" name="Constant_140052" type="Const" version="opset1">
			<data element_type="i64" shape="2" offset="2668" size="16" />
			<rt_info>
				<attribute name="precise" version="0" />
			</rt_info>
			<output>
				<port id="0" precision="I64">
					<dim>2</dim>
				</port>
			</output>
		</layer>
		<layer id="142" name="GatherAssign_121397/Reshape_2" type="Reshape" version="opset1">
			<data special_zero="false" />
			<input>
				<port id="0" precision="I64">
					<dim>-1</dim>
					<dim>6</dim>
				</port>
				<port id="1" precision="I64">
					<dim>2</dim>
				</port>
			</input>
			<output>
				<port id="2" precision="I64">
					<dim>-1</dim>
					<dim>1</dim>
				</port>
			</output>
		</layer>
		<layer id="143" name="__module.prompt_encoder/aten::slice/Unsqueeze_24" type="Const" version="opset1">
			<data element_type="i32" shape="1" offset="2560" size="4" />
			<rt_info>
				<attribute name="precise" version="0" />
			</rt_info>
			<output>
				<port id="0" precision="I32">
					<dim>1</dim>
				</port>
			</output>
		</layer>
		<layer id="144" name="__module.prompt_encoder/aten::slice/Unsqueeze_25" type="Const" version="opset1">
			<data element_type="i64" shape="1" offset="2636" size="8" />
			<rt_info>
				<attribute name="precise" version="0" />
			</rt_info>
			<output>
				<port id="0" precision="I64">
					<dim>1</dim>
				</port>
			</output>
		</layer>
		<layer id="145" name="__module.prompt_encoder/aten::slice/Unsqueeze_26" type="Const" version="opset1">
			<data element_type="i32" shape="1" offset="2590" size="4" />
			<rt_info>
				<attribute name="precise" version="0" />
			</rt_info>
			<output>
				<port id="0" precision="I32">
					<dim>1</dim>
				</port>
			</output>
		</layer>
		<layer id="146" name="__module.prompt_encoder/aten::slice/Slice_4" type="StridedSlice" version="opset1">
			<data begin_mask="0" end_mask="0" new_axis_mask="" shrink_axis_mask="" ellipsis_mask="" />
			<input>
				<port id="0" precision="FP32">
					<dim>-1</dim>
					<dim>6</dim>
					<dim>2</dim>
				</port>
				<port id="1" precision="I32">
					<dim>1</dim>
				</port>
				<port id="2" precision="I64">
					<dim>1</dim>
				</port>
				<port id="3" precision="I32">
					<dim>1</dim>
				</port>
			</input>
			<output>
				<port id="4" precision="FP32" names="934,938_1">
					<dim>-1</dim>
					<dim>6</dim>
					<dim>2</dim>
				</port>
			</output>
		</layer>
		<layer id="147" name="Constant_173940" type="Const" version="opset1">
			<data element_type="i32" shape="2" offset="2568" size="8" />
			<rt_info>
				<attribute name="precise" version="0" />
			</rt_info>
			<output>
				<port id="0" precision="I32">
					<dim>2</dim>
				</port>
			</output>
		</layer>
		<layer id="148" name="Constant_173943" type="Const" version="opset1">
			<data element_type="i64" shape="2" offset="2644" size="16" />
			<rt_info>
				<attribute name="precise" version="0" />
			</rt_info>
			<output>
				<port id="0" precision="I64">
					<dim>2</dim>
				</port>
			</output>
		</layer>
		<layer id="149" name="Constant_173946" type="Const" version="opset1">
			<data element_type="i32" shape="2" offset="2660" size="8" />
			<rt_info>
				<attribute name="precise" version="0" />
			</rt_info>
			<output>
				<port id="0" precision="I32">
					<dim>2</dim>
				</port>
			</output>
		</layer>
		<layer id="150" name="__module.prompt_encoder/aten::slice/Slice_5" type="StridedSlice" version="opset1">
			<data begin_mask="1, 0" end_mask="1, 0" new_axis_mask="" shrink_axis_mask="" ellipsis_mask="" />
			<input>
				<port id="0" precision="FP32">
					<dim>-1</dim>
					<dim>6</dim>
					<dim>2</dim>
				</port>
				<port id="1" precision="I32">
					<dim>2</dim>
				</port>
				<port id="2" precision="I64">
					<dim>2</dim>
				</port>
				<port id="3" precision="I32">
					<dim>2</dim>
				</port>
			</input>
			<output>
				<port id="4" precision="FP32" names="935,939_1">
					<dim>-1</dim>
					<dim>6</dim>
					<dim>2</dim>
				</port>
			</output>
		</layer>
		<layer id="151" name="__module.prompt_encoder/aten::select/Gather_2" type="Gather" version="opset8">
			<data batch_dims="0" />
			<input>
				<port id="0" precision="FP32">
					<dim>-1</dim>
					<dim>6</dim>
					<dim>2</dim>
				</port>
				<port id="1" precision="I32" />
				<port id="2" precision="I32" />
			</input>
			<output>
				<port id="3" precision="FP32" names="936,940_1">
					<dim>-1</dim>
					<dim>6</dim>
				</port>
			</output>
		</layer>
		<layer id="152" name="Constant_177564_compressed" type="Const" version="opset1">
			<data element_type="f16" shape="1, 1" offset="2684" size="2" />
			<output>
				<port id="0" precision="FP16">
					<dim>1</dim>
					<dim>1</dim>
				</port>
			</output>
		</layer>
		<layer id="153" name="Constant_177564" type="Convert" version="opset1">
			<data destination_type="f32" />
			<rt_info>
				<attribute name="decompression" version="0" />
			</rt_info>
			<input>
				<port id="0" precision="FP16">
					<dim>1</dim>
					<dim>1</dim>
				</port>
			</input>
			<output>
				<port id="1" precision="FP32">
					<dim>1</dim>
					<dim>1</dim>
				</port>
			</output>
		</layer>
		<layer id="154" name="__module.prompt_encoder/aten::div/Divide_1" type="Divide" version="opset1">
			<data auto_broadcast="numpy" m_pythondiv="true" />
			<input>
				<port id="0" precision="FP32">
					<dim>-1</dim>
					<dim>6</dim>
				</port>
				<port id="1" precision="FP32">
					<dim>1</dim>
					<dim>1</dim>
				</port>
			</input>
			<output>
				<port id="2" precision="FP32" names="937">
					<dim>-1</dim>
					<dim>6</dim>
				</port>
			</output>
		</layer>
		<layer id="155" name="__module.prompt_encoder/aten::copy_/ConvertLike_1" type="ConvertLike" version="opset1">
			<input>
				<port id="0" precision="FP32">
					<dim>-1</dim>
					<dim>6</dim>
				</port>
				<port id="1" precision="FP32">
					<dim>-1</dim>
					<dim>6</dim>
				</port>
			</input>
			<output>
				<port id="2" precision="FP32">
					<dim>-1</dim>
					<dim>6</dim>
				</port>
			</output>
		</layer>
		<layer id="156" name="__module.prompt_encoder/aten::copy_/ShapeOf_1" type="ShapeOf" version="opset3">
			<data output_type="i64" />
			<input>
				<port id="0" precision="FP32">
					<dim>-1</dim>
					<dim>6</dim>
				</port>
			</input>
			<output>
				<port id="1" precision="I64">
					<dim>2</dim>
				</port>
			</output>
		</layer>
		<layer id="157" name="__module.prompt_encoder/aten::copy_/Broadcast_1" type="Broadcast" version="opset3">
			<data mode="numpy" />
			<input>
				<port id="0" precision="FP32">
					<dim>-1</dim>
					<dim>6</dim>
				</port>
				<port id="1" precision="I64">
					<dim>2</dim>
				</port>
			</input>
			<output>
				<port id="2" precision="FP32" names="940">
					<dim>-1</dim>
					<dim>6</dim>
				</port>
			</output>
		</layer>
		<layer id="158" name="Constant_151333" type="Const" version="opset1">
			<data element_type="i64" shape="1" offset="2618" size="8" />
			<rt_info>
				<attribute name="precise" version="0" />
			</rt_info>
			<output>
				<port id="0" precision="I64">
					<dim>1</dim>
				</port>
			</output>
		</layer>
		<layer id="159" name="GatherAssign_121397/Reshape_3" type="Reshape" version="opset1">
			<data special_zero="false" />
			<input>
				<port id="0" precision="FP32">
					<dim>-1</dim>
					<dim>6</dim>
				</port>
				<port id="1" precision="I64">
					<dim>1</dim>
				</port>
			</input>
			<output>
				<port id="2" precision="FP32">
					<dim>-1</dim>
				</port>
			</output>
		</layer>
		<layer id="160" name="GatherAssign_121397/ScatterNDUpdate" type="ScatterNDUpdate" version="opset4">
			<input>
				<port id="0" precision="FP32">
					<dim>-1</dim>
				</port>
				<port id="1" precision="I64">
					<dim>-1</dim>
					<dim>1</dim>
				</port>
				<port id="2" precision="FP32">
					<dim>-1</dim>
				</port>
			</input>
			<output>
				<port id="3" precision="FP32">
					<dim>-1</dim>
				</port>
			</output>
		</layer>
		<layer id="161" name="GatherAssign_121397/Reshape_4" type="Reshape" version="opset1">
			<data special_zero="false" />
			<input>
				<port id="0" precision="FP32">
					<dim>-1</dim>
				</port>
				<port id="1" precision="I64">
					<dim>3</dim>
				</port>
			</input>
			<output>
				<port id="2" precision="FP32" names="925,942,coords.3">
					<dim>-1</dim>
					<dim>6</dim>
					<dim>2</dim>
				</port>
			</output>
		</layer>
		<layer id="162" name="Constant_177565_compressed" type="Const" version="opset1">
			<data element_type="f16" shape="1, 1, 1" offset="2686" size="2" />
			<output>
				<port id="0" precision="FP16">
					<dim>1</dim>
					<dim>1</dim>
					<dim>1</dim>
				</port>
			</output>
		</layer>
		<layer id="163" name="Constant_177565" type="Convert" version="opset1">
			<data destination_type="f32" />
			<rt_info>
				<attribute name="decompression" version="0" />
			</rt_info>
			<input>
				<port id="0" precision="FP16">
					<dim>1</dim>
					<dim>1</dim>
					<dim>1</dim>
				</port>
			</input>
			<output>
				<port id="1" precision="FP32">
					<dim>1</dim>
					<dim>1</dim>
					<dim>1</dim>
				</port>
			</output>
		</layer>
		<layer id="164" name="__module.prompt_encoder/aten::mul/Multiply" type="Multiply" version="opset1">
			<data auto_broadcast="numpy" />
			<input>
				<port id="0" precision="FP32">
					<dim>-1</dim>
					<dim>6</dim>
					<dim>2</dim>
				</port>
				<port id="1" precision="FP32">
					<dim>1</dim>
					<dim>1</dim>
					<dim>1</dim>
				</port>
			</input>
			<output>
				<port id="2" precision="FP32" names="943">
					<dim>-1</dim>
					<dim>6</dim>
					<dim>2</dim>
				</port>
			</output>
		</layer>
		<layer id="165" name="Constant_177566_compressed" type="Const" version="opset1">
			<data element_type="f16" shape="1, 1, 1" offset="2584" size="2" />
			<output>
				<port id="0" precision="FP16">
					<dim>1</dim>
					<dim>1</dim>
					<dim>1</dim>
				</port>
			</output>
		</layer>
		<layer id="166" name="Constant_177566" type="Convert" version="opset1">
			<data destination_type="f32" />
			<rt_info>
				<attribute name="decompression" version="0" />
			</rt_info>
			<input>
				<port id="0" precision="FP16">
					<dim>1</dim>
					<dim>1</dim>
					<dim>1</dim>
				</port>
			</input>
			<output>
				<port id="1" precision="FP32">
					<dim>1</dim>
					<dim>1</dim>
					<dim>1</dim>
				</port>
			</output>
		</layer>
		<layer id="167" name="__module.prompt_encoder/aten::sub/Subtract" type="Add" version="opset1">
			<data auto_broadcast="numpy" />
			<input>
				<port id="0" precision="FP32">
					<dim>-1</dim>
					<dim>6</dim>
					<dim>2</dim>
				</port>
				<port id="1" precision="FP32">
					<dim>1</dim>
					<dim>1</dim>
					<dim>1</dim>
				</port>
			</input>
			<output>
				<port id="2" precision="FP32" names="944,coords.5">
					<dim>-1</dim>
					<dim>6</dim>
					<dim>2</dim>
				</port>
			</output>
		</layer>
		<layer id="168" name="Multiply_176912_compressed" type="Const" version="opset1">
			<data element_type="f16" shape="128, 2" offset="2688" size="512" />
			<output>
				<port id="0" precision="FP16">
					<dim>128</dim>
					<dim>2</dim>
				</port>
			</output>
		</layer>
		<layer id="169" name="Multiply_176912" type="Convert" version="opset1">
			<data destination_type="f32" />
			<rt_info>
				<attribute name="decompression" version="0" />
			</rt_info>
			<input>
				<port id="0" precision="FP16">
					<dim>128</dim>
					<dim>2</dim>
				</port>
			</input>
			<output>
				<port id="1" precision="FP32">
					<dim>128</dim>
					<dim>2</dim>
				</port>
			</output>
		</layer>
		<layer id="170" name="__module.prompt_encoder/aten::mul/Multiply_1" type="MatMul" version="opset1">
			<data transpose_a="false" transpose_b="true" />
			<input>
				<port id="0" precision="FP32">
					<dim>-1</dim>
					<dim>6</dim>
					<dim>2</dim>
				</port>
				<port id="1" precision="FP32">
					<dim>128</dim>
					<dim>2</dim>
				</port>
			</input>
			<output>
				<port id="2" precision="FP32" names="946,coords.9">
					<dim>-1</dim>
					<dim>6</dim>
					<dim>128</dim>
				</port>
			</output>
		</layer>
		<layer id="171" name="__module.prompt_encoder/aten::sin/Sin" type="Sin" version="opset1">
			<input>
				<port id="0" precision="FP32">
					<dim>-1</dim>
					<dim>6</dim>
					<dim>128</dim>
				</port>
			</input>
			<output>
				<port id="1" precision="FP32" names="947">
					<dim>-1</dim>
					<dim>6</dim>
					<dim>128</dim>
				</port>
			</output>
		</layer>
		<layer id="172" name="__module.prompt_encoder/aten::cos/Cos" type="Cos" version="opset1">
			<input>
				<port id="0" precision="FP32">
					<dim>-1</dim>
					<dim>6</dim>
					<dim>128</dim>
				</port>
			</input>
			<output>
				<port id="1" precision="FP32" names="948">
					<dim>-1</dim>
					<dim>6</dim>
					<dim>128</dim>
				</port>
			</output>
		</layer>
		<layer id="173" name="__module.prompt_encoder/aten::cat/Concat" type="Concat" version="opset1">
			<data axis="-1" />
			<input>
				<port id="0" precision="FP32">
					<dim>-1</dim>
					<dim>6</dim>
					<dim>128</dim>
				</port>
				<port id="1" precision="FP32">
					<dim>-1</dim>
					<dim>6</dim>
					<dim>128</dim>
				</port>
			</input>
			<output>
				<port id="2" precision="FP32" names="950,point_embedding.1">
					<dim>-1</dim>
					<dim>6</dim>
					<dim>256</dim>
				</port>
			</output>
		</layer>
		<layer id="174" name="__module.prompt_encoder/aten::slice/Slice_8_compressed" type="Const" version="opset1">
			<data element_type="f16" shape="1, 1, 256" offset="3200" size="512" />
			<output>
				<port id="0" precision="FP16" names="969">
					<dim>1</dim>
					<dim>1</dim>
					<dim>256</dim>
				</port>
			</output>
		</layer>
		<layer id="175" name="__module.prompt_encoder/aten::slice/Slice_8" type="Convert" version="opset1">
			<data destination_type="f32" />
			<rt_info>
				<attribute name="decompression" version="0" />
			</rt_info>
			<input>
				<port id="0" precision="FP16">
					<dim>1</dim>
					<dim>1</dim>
					<dim>256</dim>
				</port>
			</input>
			<output>
				<port id="1" precision="FP32">
					<dim>1</dim>
					<dim>1</dim>
					<dim>256</dim>
				</port>
			</output>
		</layer>
		<layer id="176" name="aten::pad/Concat_1" type="Const" version="opset1">
			<data element_type="i32" shape="3" offset="3712" size="12" />
			<rt_info>
				<attribute name="precise" version="0" />
			</rt_info>
			<output>
				<port id="0" precision="I32">
					<dim>3</dim>
				</port>
			</output>
		</layer>
		<layer id="177" name="aten::pad/ConvertLike_9_1" type="Const" version="opset1">
			<data element_type="i32" shape="2" offset="2568" size="8" />
			<rt_info>
				<attribute name="precise" version="0" />
			</rt_info>
			<output>
				<port id="0" precision="I32">
					<dim>2</dim>
				</port>
			</output>
		</layer>
		<layer id="178" name="aten::pad/Concat_10_1" type="Concat" version="opset1">
			<data axis="0" />
			<input>
				<port id="0" precision="I32">
					<dim>2</dim>
				</port>
				<port id="1" precision="I32">
					<dim>1</dim>
				</port>
			</input>
			<output>
				<port id="2" precision="I32">
					<dim>3</dim>
				</port>
			</output>
		</layer>
		<layer id="179" name="aten::pad/ConvertLike_11_1" type="Const" version="opset1">
			<data element_type="i64" shape="" offset="2618" size="8" />
			<output>
				<port id="0" precision="I64" />
			</output>
		</layer>
		<layer id="180" name="aten::pad_1" type="Pad" version="opset1">
			<data pad_mode="constant" />
			<input>
				<port id="0" precision="I64">
					<dim>-1</dim>
					<dim>-1</dim>
					<dim>-1</dim>
				</port>
				<port id="1" precision="I32">
					<dim>3</dim>
				</port>
				<port id="2" precision="I32">
					<dim>3</dim>
				</port>
				<port id="3" precision="I64" />
			</input>
			<output>
				<port id="4" precision="I64" names="94,batched_point_labels">
					<dim>-1</dim>
					<dim>-1</dim>
					<dim>-1</dim>
				</port>
			</output>
		</layer>
		<layer id="181" name="prim::ListConstruct/Reshape_0_1" type="Const" version="opset1">
			<data element_type="i32" shape="1" offset="2598" size="4" />
			<rt_info>
				<attribute name="precise" version="0" />
			</rt_info>
			<output>
				<port id="0" precision="I32">
					<dim>1</dim>
				</port>
			</output>
		</layer>
		<layer id="182" name="prim::ListConstruct/Concat_1" type="Concat" version="opset1">
			<data axis="0" />
			<input>
				<port id="0" precision="I32">
					<dim>1</dim>
				</port>
				<port id="1" precision="I32">
					<dim>1</dim>
				</port>
			</input>
			<output>
				<port id="2" precision="I32" names="104">
					<dim>2</dim>
				</port>
			</output>
		</layer>
		<layer id="183" name="aten::reshape/Reshape_1" type="Reshape" version="opset1">
			<data special_zero="false" />
			<input>
				<port id="0" precision="I64">
					<dim>-1</dim>
					<dim>-1</dim>
					<dim>-1</dim>
				</port>
				<port id="1" precision="I32">
					<dim>2</dim>
				</port>
			</input>
			<output>
				<port id="2" precision="I64" names="105,labels">
					<dim>-1</dim>
					<dim>6</dim>
				</port>
			</output>
		</layer>
		<layer id="184" name="Constant_177567" type="Const" version="opset1">
			<data element_type="i64" shape="1, 1" offset="2618" size="8" />
			<output>
				<port id="0" precision="I64">
					<dim>1</dim>
					<dim>1</dim>
				</port>
			</output>
		</layer>
		<layer id="185" name="__module.prompt_encoder/aten::eq/Equal" type="Equal" version="opset1">
			<data auto_broadcast="numpy" />
			<input>
				<port id="0" precision="I64">
					<dim>-1</dim>
					<dim>6</dim>
				</port>
				<port id="1" precision="I64">
					<dim>1</dim>
					<dim>1</dim>
				</port>
			</input>
			<output>
				<port id="2" precision="BOOL" names="951">
					<dim>-1</dim>
					<dim>6</dim>
				</port>
			</output>
		</layer>
		<layer id="186" name="__module.prompt_encoder/aten::slice/Unsqueeze_32" type="Const" version="opset1">
			<data element_type="i32" shape="1" offset="2560" size="4" />
			<rt_info>
				<attribute name="precise" version="0" />
			</rt_info>
			<output>
				<port id="0" precision="I32">
					<dim>1</dim>
				</port>
			</output>
		</layer>
		<layer id="187" name="__module.prompt_encoder/aten::slice/Unsqueeze_33" type="Const" version="opset1">
			<data element_type="i64" shape="1" offset="2636" size="8" />
			<rt_info>
				<attribute name="precise" version="0" />
			</rt_info>
			<output>
				<port id="0" precision="I64">
					<dim>1</dim>
				</port>
			</output>
		</layer>
		<layer id="188" name="__module.prompt_encoder/aten::slice/Unsqueeze_34" type="Const" version="opset1">
			<data element_type="i32" shape="1" offset="2590" size="4" />
			<rt_info>
				<attribute name="precise" version="0" />
			</rt_info>
			<output>
				<port id="0" precision="I32">
					<dim>1</dim>
				</port>
			</output>
		</layer>
		<layer id="189" name="__module.prompt_encoder/aten::slice/Slice_9" type="StridedSlice" version="opset1">
			<data begin_mask="0" end_mask="0" new_axis_mask="" shrink_axis_mask="" ellipsis_mask="" />
			<input>
				<port id="0" precision="BOOL">
					<dim>-1</dim>
					<dim>6</dim>
				</port>
				<port id="1" precision="I32">
					<dim>1</dim>
				</port>
				<port id="2" precision="I64">
					<dim>1</dim>
				</port>
				<port id="3" precision="I32">
					<dim>1</dim>
				</port>
			</input>
			<output>
				<port id="4" precision="BOOL" names="952">
					<dim>-1</dim>
					<dim>6</dim>
				</port>
			</output>
		</layer>
		<layer id="190" name="Constant_173953" type="Const" version="opset1">
			<data element_type="i32" shape="2" offset="2568" size="8" />
			<rt_info>
				<attribute name="precise" version="0" />
			</rt_info>
			<output>
				<port id="0" precision="I32">
					<dim>2</dim>
				</port>
			</output>
		</layer>
		<layer id="191" name="Constant_173956" type="Const" version="opset1">
			<data element_type="i64" shape="2" offset="2644" size="16" />
			<rt_info>
				<attribute name="precise" version="0" />
			</rt_info>
			<output>
				<port id="0" precision="I64">
					<dim>2</dim>
				</port>
			</output>
		</layer>
		<layer id="192" name="Constant_173959" type="Const" version="opset1">
			<data element_type="i32" shape="2" offset="2660" size="8" />
			<rt_info>
				<attribute name="precise" version="0" />
			</rt_info>
			<output>
				<port id="0" precision="I32">
					<dim>2</dim>
				</port>
			</output>
		</layer>
		<layer id="193" name="__module.prompt_encoder/aten::slice/Slice_10" type="StridedSlice" version="opset1">
			<data begin_mask="1, 0" end_mask="1, 0" new_axis_mask="" shrink_axis_mask="" ellipsis_mask="" />
			<input>
				<port id="0" precision="BOOL">
					<dim>-1</dim>
					<dim>6</dim>
				</port>
				<port id="1" precision="I32">
					<dim>2</dim>
				</port>
				<port id="2" precision="I64">
					<dim>2</dim>
				</port>
				<port id="3" precision="I32">
					<dim>2</dim>
				</port>
			</input>
			<output>
				<port id="4" precision="BOOL" names="953">
					<dim>-1</dim>
					<dim>6</dim>
				</port>
			</output>
		</layer>
		<layer id="194" name="__module.prompt_encoder/aten::unsqueeze/Unsqueeze" type="Unsqueeze" version="opset1">
			<input>
				<port id="0" precision="BOOL">
					<dim>-1</dim>
					<dim>6</dim>
				</port>
				<port id="1" precision="I32" />
			</input>
			<output>
				<port id="2" precision="BOOL" names="954,invalid_label_ids">
					<dim>-1</dim>
					<dim>6</dim>
					<dim>1</dim>
				</port>
			</output>
		</layer>
		<layer id="195" name="__module.prompt_encoder/aten::mul/Convert_1" type="Convert" version="opset1">
			<data destination_type="f32" />
			<input>
				<port id="0" precision="BOOL">
					<dim>-1</dim>
					<dim>6</dim>
					<dim>1</dim>
				</port>
			</input>
			<output>
				<port id="1" precision="FP32">
					<dim>-1</dim>
					<dim>6</dim>
					<dim>1</dim>
				</port>
			</output>
		</layer>
		<layer id="196" name="__module.prompt_encoder/aten::mul/Multiply_2" type="Multiply" version="opset1">
			<data auto_broadcast="numpy" />
			<input>
				<port id="0" precision="FP32">
					<dim>1</dim>
					<dim>1</dim>
					<dim>256</dim>
				</port>
				<port id="1" precision="FP32">
					<dim>-1</dim>
					<dim>6</dim>
					<dim>1</dim>
				</port>
			</input>
			<output>
				<port id="2" precision="FP32" names="970">
					<dim>-1</dim>
					<dim>6</dim>
					<dim>256</dim>
				</port>
			</output>
		</layer>
		<layer id="197" name="__module.prompt_encoder/aten::add/Add_1" type="Add" version="opset1">
			<data auto_broadcast="numpy" />
			<input>
				<port id="0" precision="FP32">
					<dim>-1</dim>
					<dim>6</dim>
					<dim>256</dim>
				</port>
				<port id="1" precision="FP32">
					<dim>-1</dim>
					<dim>6</dim>
					<dim>256</dim>
				</port>
			</input>
			<output>
				<port id="2" precision="FP32" names="971,point_embedding.3">
					<dim>-1</dim>
					<dim>6</dim>
					<dim>256</dim>
				</port>
			</output>
		</layer>
		<layer id="198" name="__module.prompt_encoder/aten::slice/Slice_11_compressed" type="Const" version="opset1">
			<data element_type="f16" shape="1, 1, 256" offset="3724" size="512" />
			<output>
				<port id="0" precision="FP16" names="974">
					<dim>1</dim>
					<dim>1</dim>
					<dim>256</dim>
				</port>
			</output>
		</layer>
		<layer id="199" name="__module.prompt_encoder/aten::slice/Slice_11" type="Convert" version="opset1">
			<data destination_type="f32" />
			<rt_info>
				<attribute name="decompression" version="0" />
			</rt_info>
			<input>
				<port id="0" precision="FP16">
					<dim>1</dim>
					<dim>1</dim>
					<dim>256</dim>
				</port>
			</input>
			<output>
				<port id="1" precision="FP32">
					<dim>1</dim>
					<dim>1</dim>
					<dim>256</dim>
				</port>
			</output>
		</layer>
		<layer id="200" name="Constant_177568" type="Const" version="opset1">
			<data element_type="i64" shape="1, 1" offset="2628" size="8" />
			<output>
				<port id="0" precision="I64">
					<dim>1</dim>
					<dim>1</dim>
				</port>
			</output>
		</layer>
		<layer id="201" name="__module.prompt_encoder/aten::eq/Equal_1" type="Equal" version="opset1">
			<data auto_broadcast="numpy" />
			<input>
				<port id="0" precision="I64">
					<dim>-1</dim>
					<dim>6</dim>
				</port>
				<port id="1" precision="I64">
					<dim>1</dim>
					<dim>1</dim>
				</port>
			</input>
			<output>
				<port id="2" precision="BOOL" names="955">
					<dim>-1</dim>
					<dim>6</dim>
				</port>
			</output>
		</layer>
		<layer id="202" name="__module.prompt_encoder/aten::slice/Unsqueeze_40" type="Const" version="opset1">
			<data element_type="i32" shape="1" offset="2560" size="4" />
			<rt_info>
				<attribute name="precise" version="0" />
			</rt_info>
			<output>
				<port id="0" precision="I32">
					<dim>1</dim>
				</port>
			</output>
		</layer>
		<layer id="203" name="__module.prompt_encoder/aten::slice/Unsqueeze_41" type="Const" version="opset1">
			<data element_type="i64" shape="1" offset="2636" size="8" />
			<rt_info>
				<attribute name="precise" version="0" />
			</rt_info>
			<output>
				<port id="0" precision="I64">
					<dim>1</dim>
				</port>
			</output>
		</layer>
		<layer id="204" name="__module.prompt_encoder/aten::slice/Unsqueeze_42" type="Const" version="opset1">
			<data element_type="i32" shape="1" offset="2590" size="4" />
			<rt_info>
				<attribute name="precise" version="0" />
			</rt_info>
			<output>
				<port id="0" precision="I32">
					<dim>1</dim>
				</port>
			</output>
		</layer>
		<layer id="205" name="__module.prompt_encoder/aten::slice/Slice_12" type="StridedSlice" version="opset1">
			<data begin_mask="0" end_mask="0" new_axis_mask="" shrink_axis_mask="" ellipsis_mask="" />
			<input>
				<port id="0" precision="BOOL">
					<dim>-1</dim>
					<dim>6</dim>
				</port>
				<port id="1" precision="I32">
					<dim>1</dim>
				</port>
				<port id="2" precision="I64">
					<dim>1</dim>
				</port>
				<port id="3" precision="I32">
					<dim>1</dim>
				</port>
			</input>
			<output>
				<port id="4" precision="BOOL" names="956">
					<dim>-1</dim>
					<dim>6</dim>
				</port>
			</output>
		</layer>
		<layer id="206" name="Constant_173966" type="Const" version="opset1">
			<data element_type="i32" shape="2" offset="2568" size="8" />
			<rt_info>
				<attribute name="precise" version="0" />
			</rt_info>
			<output>
				<port id="0" precision="I32">
					<dim>2</dim>
				</port>
			</output>
		</layer>
		<layer id="207" name="Constant_173969" type="Const" version="opset1">
			<data element_type="i64" shape="2" offset="2644" size="16" />
			<rt_info>
				<attribute name="precise" version="0" />
			</rt_info>
			<output>
				<port id="0" precision="I64">
					<dim>2</dim>
				</port>
			</output>
		</layer>
		<layer id="208" name="Constant_173972" type="Const" version="opset1">
			<data element_type="i32" shape="2" offset="2660" size="8" />
			<rt_info>
				<attribute name="precise" version="0" />
			</rt_info>
			<output>
				<port id="0" precision="I32">
					<dim>2</dim>
				</port>
			</output>
		</layer>
		<layer id="209" name="__module.prompt_encoder/aten::slice/Slice_13" type="StridedSlice" version="opset1">
			<data begin_mask="1, 0" end_mask="1, 0" new_axis_mask="" shrink_axis_mask="" ellipsis_mask="" />
			<input>
				<port id="0" precision="BOOL">
					<dim>-1</dim>
					<dim>6</dim>
				</port>
				<port id="1" precision="I32">
					<dim>2</dim>
				</port>
				<port id="2" precision="I64">
					<dim>2</dim>
				</port>
				<port id="3" precision="I32">
					<dim>2</dim>
				</port>
			</input>
			<output>
				<port id="4" precision="BOOL" names="957">
					<dim>-1</dim>
					<dim>6</dim>
				</port>
			</output>
		</layer>
		<layer id="210" name="__module.prompt_encoder/aten::unsqueeze/Unsqueeze_1" type="Unsqueeze" version="opset1">
			<input>
				<port id="0" precision="BOOL">
					<dim>-1</dim>
					<dim>6</dim>
				</port>
				<port id="1" precision="I32" />
			</input>
			<output>
				<port id="2" precision="BOOL" names="958,point_label_ids">
					<dim>-1</dim>
					<dim>6</dim>
					<dim>1</dim>
				</port>
			</output>
		</layer>
		<layer id="211" name="__module.prompt_encoder/aten::mul/Convert_2" type="Convert" version="opset1">
			<data destination_type="f32" />
			<input>
				<port id="0" precision="BOOL">
					<dim>-1</dim>
					<dim>6</dim>
					<dim>1</dim>
				</port>
			</input>
			<output>
				<port id="1" precision="FP32">
					<dim>-1</dim>
					<dim>6</dim>
					<dim>1</dim>
				</port>
			</output>
		</layer>
		<layer id="212" name="__module.prompt_encoder/aten::mul/Multiply_3" type="Multiply" version="opset1">
			<data auto_broadcast="numpy" />
			<input>
				<port id="0" precision="FP32">
					<dim>1</dim>
					<dim>1</dim>
					<dim>256</dim>
				</port>
				<port id="1" precision="FP32">
					<dim>-1</dim>
					<dim>6</dim>
					<dim>1</dim>
				</port>
			</input>
			<output>
				<port id="2" precision="FP32" names="975">
					<dim>-1</dim>
					<dim>6</dim>
					<dim>256</dim>
				</port>
			</output>
		</layer>
		<layer id="213" name="__module.prompt_encoder/aten::add/Add_2" type="Add" version="opset1">
			<data auto_broadcast="numpy" />
			<input>
				<port id="0" precision="FP32">
					<dim>-1</dim>
					<dim>6</dim>
					<dim>256</dim>
				</port>
				<port id="1" precision="FP32">
					<dim>-1</dim>
					<dim>6</dim>
					<dim>256</dim>
				</port>
			</input>
			<output>
				<port id="2" precision="FP32" names="976,point_embedding.5">
					<dim>-1</dim>
					<dim>6</dim>
					<dim>256</dim>
				</port>
			</output>
		</layer>
		<layer id="214" name="__module.prompt_encoder/aten::slice/Slice_14_compressed" type="Const" version="opset1">
			<data element_type="f16" shape="1, 1, 256" offset="4236" size="512" />
			<output>
				<port id="0" precision="FP16" names="979">
					<dim>1</dim>
					<dim>1</dim>
					<dim>256</dim>
				</port>
			</output>
		</layer>
		<layer id="215" name="__module.prompt_encoder/aten::slice/Slice_14" type="Convert" version="opset1">
			<data destination_type="f32" />
			<rt_info>
				<attribute name="decompression" version="0" />
			</rt_info>
			<input>
				<port id="0" precision="FP16">
					<dim>1</dim>
					<dim>1</dim>
					<dim>256</dim>
				</port>
			</input>
			<output>
				<port id="1" precision="FP32">
					<dim>1</dim>
					<dim>1</dim>
					<dim>256</dim>
				</port>
			</output>
		</layer>
		<layer id="216" name="Constant_177569" type="Const" version="opset1">
			<data element_type="i64" shape="1, 1" offset="2602" size="8" />
			<output>
				<port id="0" precision="I64">
					<dim>1</dim>
					<dim>1</dim>
				</port>
			</output>
		</layer>
		<layer id="217" name="__module.prompt_encoder/aten::eq/Equal_2" type="Equal" version="opset1">
			<data auto_broadcast="numpy" />
			<input>
				<port id="0" precision="I64">
					<dim>-1</dim>
					<dim>6</dim>
				</port>
				<port id="1" precision="I64">
					<dim>1</dim>
					<dim>1</dim>
				</port>
			</input>
			<output>
				<port id="2" precision="BOOL" names="959">
					<dim>-1</dim>
					<dim>6</dim>
				</port>
			</output>
		</layer>
		<layer id="218" name="__module.prompt_encoder/aten::slice/Unsqueeze_48" type="Const" version="opset1">
			<data element_type="i32" shape="1" offset="2560" size="4" />
			<rt_info>
				<attribute name="precise" version="0" />
			</rt_info>
			<output>
				<port id="0" precision="I32">
					<dim>1</dim>
				</port>
			</output>
		</layer>
		<layer id="219" name="__module.prompt_encoder/aten::slice/Unsqueeze_49" type="Const" version="opset1">
			<data element_type="i64" shape="1" offset="2636" size="8" />
			<rt_info>
				<attribute name="precise" version="0" />
			</rt_info>
			<output>
				<port id="0" precision="I64">
					<dim>1</dim>
				</port>
			</output>
		</layer>
		<layer id="220" name="__module.prompt_encoder/aten::slice/Unsqueeze_50" type="Const" version="opset1">
			<data element_type="i32" shape="1" offset="2590" size="4" />
			<rt_info>
				<attribute name="precise" version="0" />
			</rt_info>
			<output>
				<port id="0" precision="I32">
					<dim>1</dim>
				</port>
			</output>
		</layer>
		<layer id="221" name="__module.prompt_encoder/aten::slice/Slice_15" type="StridedSlice" version="opset1">
			<data begin_mask="0" end_mask="0" new_axis_mask="" shrink_axis_mask="" ellipsis_mask="" />
			<input>
				<port id="0" precision="BOOL">
					<dim>-1</dim>
					<dim>6</dim>
				</port>
				<port id="1" precision="I32">
					<dim>1</dim>
				</port>
				<port id="2" precision="I64">
					<dim>1</dim>
				</port>
				<port id="3" precision="I32">
					<dim>1</dim>
				</port>
			</input>
			<output>
				<port id="4" precision="BOOL" names="960">
					<dim>-1</dim>
					<dim>6</dim>
				</port>
			</output>
		</layer>
		<layer id="222" name="Constant_173979" type="Const" version="opset1">
			<data element_type="i32" shape="2" offset="2568" size="8" />
			<rt_info>
				<attribute name="precise" version="0" />
			</rt_info>
			<output>
				<port id="0" precision="I32">
					<dim>2</dim>
				</port>
			</output>
		</layer>
		<layer id="223" name="Constant_173982" type="Const" version="opset1">
			<data element_type="i64" shape="2" offset="2644" size="16" />
			<rt_info>
				<attribute name="precise" version="0" />
			</rt_info>
			<output>
				<port id="0" precision="I64">
					<dim>2</dim>
				</port>
			</output>
		</layer>
		<layer id="224" name="Constant_173985" type="Const" version="opset1">
			<data element_type="i32" shape="2" offset="2660" size="8" />
			<rt_info>
				<attribute name="precise" version="0" />
			</rt_info>
			<output>
				<port id="0" precision="I32">
					<dim>2</dim>
				</port>
			</output>
		</layer>
		<layer id="225" name="__module.prompt_encoder/aten::slice/Slice_16" type="StridedSlice" version="opset1">
			<data begin_mask="1, 0" end_mask="1, 0" new_axis_mask="" shrink_axis_mask="" ellipsis_mask="" />
			<input>
				<port id="0" precision="BOOL">
					<dim>-1</dim>
					<dim>6</dim>
				</port>
				<port id="1" precision="I32">
					<dim>2</dim>
				</port>
				<port id="2" precision="I64">
					<dim>2</dim>
				</port>
				<port id="3" precision="I32">
					<dim>2</dim>
				</port>
			</input>
			<output>
				<port id="4" precision="BOOL" names="961">
					<dim>-1</dim>
					<dim>6</dim>
				</port>
			</output>
		</layer>
		<layer id="226" name="__module.prompt_encoder/aten::unsqueeze/Unsqueeze_2" type="Unsqueeze" version="opset1">
			<input>
				<port id="0" precision="BOOL">
					<dim>-1</dim>
					<dim>6</dim>
				</port>
				<port id="1" precision="I32" />
			</input>
			<output>
				<port id="2" precision="BOOL" names="962,topleft_label_ids">
					<dim>-1</dim>
					<dim>6</dim>
					<dim>1</dim>
				</port>
			</output>
		</layer>
		<layer id="227" name="__module.prompt_encoder/aten::mul/Convert_3" type="Convert" version="opset1">
			<data destination_type="f32" />
			<input>
				<port id="0" precision="BOOL">
					<dim>-1</dim>
					<dim>6</dim>
					<dim>1</dim>
				</port>
			</input>
			<output>
				<port id="1" precision="FP32">
					<dim>-1</dim>
					<dim>6</dim>
					<dim>1</dim>
				</port>
			</output>
		</layer>
		<layer id="228" name="__module.prompt_encoder/aten::mul/Multiply_4" type="Multiply" version="opset1">
			<data auto_broadcast="numpy" />
			<input>
				<port id="0" precision="FP32">
					<dim>1</dim>
					<dim>1</dim>
					<dim>256</dim>
				</port>
				<port id="1" precision="FP32">
					<dim>-1</dim>
					<dim>6</dim>
					<dim>1</dim>
				</port>
			</input>
			<output>
				<port id="2" precision="FP32" names="980">
					<dim>-1</dim>
					<dim>6</dim>
					<dim>256</dim>
				</port>
			</output>
		</layer>
		<layer id="229" name="__module.prompt_encoder/aten::add/Add_3" type="Add" version="opset1">
			<data auto_broadcast="numpy" />
			<input>
				<port id="0" precision="FP32">
					<dim>-1</dim>
					<dim>6</dim>
					<dim>256</dim>
				</port>
				<port id="1" precision="FP32">
					<dim>-1</dim>
					<dim>6</dim>
					<dim>256</dim>
				</port>
			</input>
			<output>
				<port id="2" precision="FP32" names="981,point_embedding">
					<dim>-1</dim>
					<dim>6</dim>
					<dim>256</dim>
				</port>
			</output>
		</layer>
		<layer id="230" name="__module.prompt_encoder/aten::slice/Slice_17_compressed" type="Const" version="opset1">
			<data element_type="f16" shape="1, 1, 256" offset="4748" size="512" />
			<output>
				<port id="0" precision="FP16" names="984">
					<dim>1</dim>
					<dim>1</dim>
					<dim>256</dim>
				</port>
			</output>
		</layer>
		<layer id="231" name="__module.prompt_encoder/aten::slice/Slice_17" type="Convert" version="opset1">
			<data destination_type="f32" />
			<rt_info>
				<attribute name="decompression" version="0" />
			</rt_info>
			<input>
				<port id="0" precision="FP16">
					<dim>1</dim>
					<dim>1</dim>
					<dim>256</dim>
				</port>
			</input>
			<output>
				<port id="1" precision="FP32">
					<dim>1</dim>
					<dim>1</dim>
					<dim>256</dim>
				</port>
			</output>
		</layer>
		<layer id="232" name="Constant_177570" type="Const" version="opset1">
			<data element_type="i64" shape="1, 1" offset="5260" size="8" />
			<output>
				<port id="0" precision="I64">
					<dim>1</dim>
					<dim>1</dim>
				</port>
			</output>
		</layer>
		<layer id="233" name="__module.prompt_encoder/aten::eq/Equal_3" type="Equal" version="opset1">
			<data auto_broadcast="numpy" />
			<input>
				<port id="0" precision="I64">
					<dim>-1</dim>
					<dim>6</dim>
				</port>
				<port id="1" precision="I64">
					<dim>1</dim>
					<dim>1</dim>
				</port>
			</input>
			<output>
				<port id="2" precision="BOOL" names="963">
					<dim>-1</dim>
					<dim>6</dim>
				</port>
			</output>
		</layer>
		<layer id="234" name="__module.prompt_encoder/aten::slice/Unsqueeze_56" type="Const" version="opset1">
			<data element_type="i32" shape="1" offset="2560" size="4" />
			<rt_info>
				<attribute name="precise" version="0" />
			</rt_info>
			<output>
				<port id="0" precision="I32">
					<dim>1</dim>
				</port>
			</output>
		</layer>
		<layer id="235" name="__module.prompt_encoder/aten::slice/Unsqueeze_57" type="Const" version="opset1">
			<data element_type="i64" shape="1" offset="2636" size="8" />
			<rt_info>
				<attribute name="precise" version="0" />
			</rt_info>
			<output>
				<port id="0" precision="I64">
					<dim>1</dim>
				</port>
			</output>
		</layer>
		<layer id="236" name="__module.prompt_encoder/aten::slice/Unsqueeze_58" type="Const" version="opset1">
			<data element_type="i32" shape="1" offset="2590" size="4" />
			<rt_info>
				<attribute name="precise" version="0" />
			</rt_info>
			<output>
				<port id="0" precision="I32">
					<dim>1</dim>
				</port>
			</output>
		</layer>
		<layer id="237" name="__module.prompt_encoder/aten::slice/Slice_18" type="StridedSlice" version="opset1">
			<data begin_mask="0" end_mask="0" new_axis_mask="" shrink_axis_mask="" ellipsis_mask="" />
			<input>
				<port id="0" precision="BOOL">
					<dim>-1</dim>
					<dim>6</dim>
				</port>
				<port id="1" precision="I32">
					<dim>1</dim>
				</port>
				<port id="2" precision="I64">
					<dim>1</dim>
				</port>
				<port id="3" precision="I32">
					<dim>1</dim>
				</port>
			</input>
			<output>
				<port id="4" precision="BOOL" names="964">
					<dim>-1</dim>
					<dim>6</dim>
				</port>
			</output>
		</layer>
		<layer id="238" name="Constant_173992" type="Const" version="opset1">
			<data element_type="i32" shape="2" offset="2568" size="8" />
			<rt_info>
				<attribute name="precise" version="0" />
			</rt_info>
			<output>
				<port id="0" precision="I32">
					<dim>2</dim>
				</port>
			</output>
		</layer>
		<layer id="239" name="Constant_173995" type="Const" version="opset1">
			<data element_type="i64" shape="2" offset="2644" size="16" />
			<rt_info>
				<attribute name="precise" version="0" />
			</rt_info>
			<output>
				<port id="0" precision="I64">
					<dim>2</dim>
				</port>
			</output>
		</layer>
		<layer id="240" name="Constant_173998" type="Const" version="opset1">
			<data element_type="i32" shape="2" offset="2660" size="8" />
			<rt_info>
				<attribute name="precise" version="0" />
			</rt_info>
			<output>
				<port id="0" precision="I32">
					<dim>2</dim>
				</port>
			</output>
		</layer>
		<layer id="241" name="__module.prompt_encoder/aten::slice/Slice_19" type="StridedSlice" version="opset1">
			<data begin_mask="1, 0" end_mask="1, 0" new_axis_mask="" shrink_axis_mask="" ellipsis_mask="" />
			<input>
				<port id="0" precision="BOOL">
					<dim>-1</dim>
					<dim>6</dim>
				</port>
				<port id="1" precision="I32">
					<dim>2</dim>
				</port>
				<port id="2" precision="I64">
					<dim>2</dim>
				</port>
				<port id="3" precision="I32">
					<dim>2</dim>
				</port>
			</input>
			<output>
				<port id="4" precision="BOOL" names="965">
					<dim>-1</dim>
					<dim>6</dim>
				</port>
			</output>
		</layer>
		<layer id="242" name="__module.prompt_encoder/aten::unsqueeze/Unsqueeze_3" type="Unsqueeze" version="opset1">
			<input>
				<port id="0" precision="BOOL">
					<dim>-1</dim>
					<dim>6</dim>
				</port>
				<port id="1" precision="I32" />
			</input>
			<output>
				<port id="2" precision="BOOL" names="966,bottomright_label_ids">
					<dim>-1</dim>
					<dim>6</dim>
					<dim>1</dim>
				</port>
			</output>
		</layer>
		<layer id="243" name="__module.prompt_encoder/aten::mul/Convert_4" type="Convert" version="opset1">
			<data destination_type="f32" />
			<input>
				<port id="0" precision="BOOL">
					<dim>-1</dim>
					<dim>6</dim>
					<dim>1</dim>
				</port>
			</input>
			<output>
				<port id="1" precision="FP32">
					<dim>-1</dim>
					<dim>6</dim>
					<dim>1</dim>
				</port>
			</output>
		</layer>
		<layer id="244" name="__module.prompt_encoder/aten::mul/Multiply_5" type="Multiply" version="opset1">
			<data auto_broadcast="numpy" />
			<input>
				<port id="0" precision="FP32">
					<dim>1</dim>
					<dim>1</dim>
					<dim>256</dim>
				</port>
				<port id="1" precision="FP32">
					<dim>-1</dim>
					<dim>6</dim>
					<dim>1</dim>
				</port>
			</input>
			<output>
				<port id="2" precision="FP32" names="985">
					<dim>-1</dim>
					<dim>6</dim>
					<dim>256</dim>
				</port>
			</output>
		</layer>
		<layer id="245" name="__module.prompt_encoder/aten::add/Add_4" type="Add" version="opset1">
			<data auto_broadcast="numpy" />
			<input>
				<port id="0" precision="FP32">
					<dim>-1</dim>
					<dim>6</dim>
					<dim>256</dim>
				</port>
				<port id="1" precision="FP32">
					<dim>-1</dim>
					<dim>6</dim>
					<dim>256</dim>
				</port>
			</input>
			<output>
				<port id="2" precision="FP32" names="986,sparse_embeddings">
					<dim>-1</dim>
					<dim>6</dim>
					<dim>256</dim>
				</port>
			</output>
		</layer>
		<layer id="246" name="Constant_151336" type="Const" version="opset1">
			<data element_type="i64" shape="1" offset="2618" size="8" />
			<rt_info>
				<attribute name="precise" version="0" />
			</rt_info>
			<output>
				<port id="0" precision="I64">
					<dim>1</dim>
				</port>
			</output>
		</layer>
		<layer id="247" name="prim::ListConstruct/Reshape_5" type="Reshape" version="opset1">
			<data special_zero="false" />
			<input>
				<port id="0" precision="I32" />
				<port id="1" precision="I64">
					<dim>1</dim>
				</port>
			</input>
			<output>
				<port id="2" precision="I32">
					<dim>1</dim>
				</port>
			</output>
		</layer>
		<layer id="248" name="Constant_151337" type="Const" version="opset1">
			<data element_type="i64" shape="1" offset="2618" size="8" />
			<rt_info>
				<attribute name="precise" version="0" />
			</rt_info>
			<output>
				<port id="0" precision="I64">
					<dim>1</dim>
				</port>
			</output>
		</layer>
		<layer id="249" name="prim::ListConstruct/Reshape_0_2" type="Reshape" version="opset1">
			<data special_zero="false" />
			<input>
				<port id="0" precision="I32" />
				<port id="1" precision="I64">
					<dim>1</dim>
				</port>
			</input>
			<output>
				<port id="2" precision="I32">
					<dim>1</dim>
				</port>
			</output>
		</layer>
		<layer id="250" name="aten::size/ShapeOf_5" type="ShapeOf" version="opset3">
			<data output_type="i32" />
			<input>
				<port id="0" precision="FP32">
					<dim>-1</dim>
					<dim>6</dim>
					<dim>256</dim>
				</port>
			</input>
			<output>
				<port id="1" precision="I32">
					<dim>3</dim>
				</port>
			</output>
		</layer>
		<layer id="251" name="107" type="Const" version="opset1">
			<data element_type="i32" shape="" offset="2590" size="4" />
			<rt_info>
				<attribute name="precise" version="0" />
			</rt_info>
			<output>
				<port id="0" precision="I32" names="107" />
			</output>
		</layer>
		<layer id="252" name="aten::size/Constant_5" type="Const" version="opset1">
			<data element_type="i32" shape="" offset="2560" size="4" />
			<rt_info>
				<attribute name="precise" version="0" />
			</rt_info>
			<output>
				<port id="0" precision="I32" />
			</output>
		</layer>
		<layer id="253" name="aten::size/Gather_5" type="Gather" version="opset8">
			<data batch_dims="0" />
			<input>
				<port id="0" precision="I32">
					<dim>3</dim>
				</port>
				<port id="1" precision="I32" />
				<port id="2" precision="I32" />
			</input>
			<output>
				<port id="3" precision="I32" names="108,110" />
			</output>
		</layer>
		<layer id="254" name="Constant_151338" type="Const" version="opset1">
			<data element_type="i64" shape="1" offset="2618" size="8" />
			<rt_info>
				<attribute name="precise" version="0" />
			</rt_info>
			<output>
				<port id="0" precision="I64">
					<dim>1</dim>
				</port>
			</output>
		</layer>
		<layer id="255" name="prim::ListConstruct/Reshape_1_1" type="Reshape" version="opset1">
			<data special_zero="false" />
			<input>
				<port id="0" precision="I32" />
				<port id="1" precision="I64">
					<dim>1</dim>
				</port>
			</input>
			<output>
				<port id="2" precision="I32">
					<dim>1</dim>
				</port>
			</output>
		</layer>
		<layer id="256" name="111" type="Const" version="opset1">
			<data element_type="i32" shape="" offset="2594" size="4" />
			<rt_info>
				<attribute name="precise" version="0" />
			</rt_info>
			<output>
				<port id="0" precision="I32" names="111" />
			</output>
		</layer>
		<layer id="257" name="aten::size/Constant_6" type="Const" version="opset1">
			<data element_type="i32" shape="" offset="2560" size="4" />
			<rt_info>
				<attribute name="precise" version="0" />
			</rt_info>
			<output>
				<port id="0" precision="I32" />
			</output>
		</layer>
		<layer id="258" name="aten::size/Gather_6" type="Gather" version="opset8">
			<data batch_dims="0" />
			<input>
				<port id="0" precision="I32">
					<dim>3</dim>
				</port>
				<port id="1" precision="I32" />
				<port id="2" precision="I32" />
			</input>
			<output>
				<port id="3" precision="I32" names="112,114" />
			</output>
		</layer>
		<layer id="259" name="Constant_151339" type="Const" version="opset1">
			<data element_type="i64" shape="1" offset="2618" size="8" />
			<rt_info>
				<attribute name="precise" version="0" />
			</rt_info>
			<output>
				<port id="0" precision="I64">
					<dim>1</dim>
				</port>
			</output>
		</layer>
		<layer id="260" name="prim::ListConstruct/Reshape_2" type="Reshape" version="opset1">
			<data special_zero="false" />
			<input>
				<port id="0" precision="I32" />
				<port id="1" precision="I64">
					<dim>1</dim>
				</port>
			</input>
			<output>
				<port id="2" precision="I32">
					<dim>1</dim>
				</port>
			</output>
		</layer>
		<layer id="261" name="prim::ListConstruct/Concat_2" type="Concat" version="opset1">
			<data axis="0" />
			<input>
				<port id="0" precision="I32">
					<dim>1</dim>
				</port>
				<port id="1" precision="I32">
					<dim>1</dim>
				</port>
				<port id="2" precision="I32">
					<dim>1</dim>
				</port>
				<port id="3" precision="I32">
					<dim>1</dim>
				</port>
			</input>
			<output>
				<port id="4" precision="I32" names="115">
					<dim>4</dim>
				</port>
			</output>
		</layer>
		<layer id="262" name="aten::view/Reshape" type="Reshape" version="opset1">
			<data special_zero="false" />
			<input>
				<port id="0" precision="FP32">
					<dim>-1</dim>
					<dim>6</dim>
					<dim>256</dim>
				</port>
				<port id="1" precision="I32">
					<dim>4</dim>
				</port>
			</input>
			<output>
				<port id="2" precision="FP32" names="116,sparse_prompt_embeddings.1">
					<dim>-1</dim>
					<dim>-1</dim>
					<dim>6</dim>
					<dim>256</dim>
				</port>
			</output>
		</layer>
		<layer id="263" name="__module.mask_decoder/aten::size/ShapeOf" type="ShapeOf" version="opset3">
			<data output_type="i32" />
			<input>
				<port id="0" precision="FP32">
					<dim>-1</dim>
					<dim>-1</dim>
					<dim>6</dim>
					<dim>256</dim>
				</port>
			</input>
			<output>
				<port id="1" precision="I32">
					<dim>4</dim>
				</port>
			</output>
		</layer>
		<layer id="264" name="1039" type="Const" version="opset1">
			<data element_type="i32" shape="" offset="2560" size="4" />
			<rt_info>
				<attribute name="precise" version="0" />
			</rt_info>
			<output>
				<port id="0" precision="I32" names="1039" />
			</output>
		</layer>
		<layer id="265" name="__module.mask_decoder/aten::size/Constant" type="Const" version="opset1">
			<data element_type="i32" shape="" offset="2560" size="4" />
			<rt_info>
				<attribute name="precise" version="0" />
			</rt_info>
			<output>
				<port id="0" precision="I32" />
			</output>
		</layer>
		<layer id="266" name="__module.mask_decoder/aten::size/Gather" type="Gather" version="opset8">
			<data batch_dims="0" />
			<input>
				<port id="0" precision="I32">
					<dim>4</dim>
				</port>
				<port id="1" precision="I32" />
				<port id="2" precision="I32" />
			</input>
			<output>
				<port id="3" precision="I32" names="1058" />
			</output>
		</layer>
		<layer id="267" name="1038" type="Const" version="opset1">
			<data element_type="i32" shape="" offset="2590" size="4" />
			<rt_info>
				<attribute name="precise" version="0" />
			</rt_info>
			<output>
				<port id="0" precision="I32" names="1038" />
			</output>
		</layer>
		<layer id="268" name="__module.mask_decoder/aten::size/Constant_1" type="Const" version="opset1">
			<data element_type="i32" shape="" offset="2560" size="4" />
			<rt_info>
				<attribute name="precise" version="0" />
			</rt_info>
			<output>
				<port id="0" precision="I32" />
			</output>
		</layer>
		<layer id="269" name="__module.mask_decoder/aten::size/Gather_1" type="Gather" version="opset8">
			<data batch_dims="0" />
			<input>
				<port id="0" precision="I32">
					<dim>4</dim>
				</port>
				<port id="1" precision="I32" />
				<port id="2" precision="I32" />
			</input>
			<output>
				<port id="3" precision="I32" names="1060" />
			</output>
		</layer>
		<layer id="270" name="__module.mask_decoder/aten::mul/Multiply_1" type="Multiply" version="opset1">
			<data auto_broadcast="numpy" />
			<input>
				<port id="0" precision="I32" />
				<port id="1" precision="I32" />
			</input>
			<output>
				<port id="2" precision="I32" names="1074,1075,1078,1079" />
			</output>
		</layer>
		<layer id="271" name="Constant_151340" type="Const" version="opset1">
			<data element_type="i64" shape="1" offset="2618" size="8" />
			<rt_info>
				<attribute name="precise" version="0" />
			</rt_info>
			<output>
				<port id="0" precision="I64">
					<dim>1</dim>
				</port>
			</output>
		</layer>
		<layer id="272" name="__module.mask_decoder/prim::ListConstruct/Reshape" type="Reshape" version="opset1">
			<data special_zero="false" />
			<input>
				<port id="0" precision="I32" />
				<port id="1" precision="I64">
					<dim>1</dim>
				</port>
			</input>
			<output>
				<port id="2" precision="I32">
					<dim>1</dim>
				</port>
			</output>
		</layer>
		<layer id="273" name="Constant_170292" type="Const" version="opset1">
			<data element_type="i32" shape="2" offset="5268" size="8" />
			<rt_info>
				<attribute name="precise" version="0" />
			</rt_info>
			<output>
				<port id="0" precision="I32">
					<dim>2</dim>
				</port>
			</output>
		</layer>
		<layer id="274" name="Constant_170293" type="Const" version="opset1">
			<data element_type="i64" shape="" offset="2568" size="8" />
			<rt_info>
				<attribute name="precise" version="0" />
			</rt_info>
			<output>
				<port id="0" precision="I64" />
			</output>
		</layer>
		<layer id="275" name="Gather_170294" type="Gather" version="opset8">
			<data batch_dims="0" />
			<input>
				<port id="0" precision="I32">
					<dim>4</dim>
				</port>
				<port id="1" precision="I32">
					<dim>2</dim>
				</port>
				<port id="2" precision="I64" />
			</input>
			<output>
				<port id="3" precision="I32">
					<dim>2</dim>
				</port>
			</output>
		</layer>
		<layer id="276" name="__module.mask_decoder/prim::ListConstruct/Concat" type="Concat" version="opset1">
			<data axis="0" />
			<input>
				<port id="0" precision="I32">
					<dim>1</dim>
				</port>
				<port id="1" precision="I32">
					<dim>2</dim>
				</port>
			</input>
			<output>
				<port id="2" precision="I32" names="1080">
					<dim>3</dim>
				</port>
			</output>
		</layer>
		<layer id="277" name="__module.mask_decoder/aten::reshape/Reshape" type="Reshape" version="opset1">
			<data special_zero="false" />
			<input>
				<port id="0" precision="FP32">
					<dim>-1</dim>
					<dim>-1</dim>
					<dim>6</dim>
					<dim>256</dim>
				</port>
				<port id="1" precision="I32">
					<dim>3</dim>
				</port>
			</input>
			<output>
				<port id="2" precision="FP32" names="1081,sparse_prompt_embeddings">
					<dim>-1</dim>
					<dim>6</dim>
					<dim>256</dim>
				</port>
			</output>
		</layer>
		<layer id="278" name="__module.mask_decoder/aten::size/ShapeOf_4" type="ShapeOf" version="opset3">
			<data output_type="i32" />
			<input>
				<port id="0" precision="FP32">
					<dim>-1</dim>
					<dim>6</dim>
					<dim>256</dim>
				</port>
			</input>
			<output>
				<port id="1" precision="I32">
					<dim>3</dim>
				</port>
			</output>
		</layer>
		<layer id="279" name="Constant_170016" type="Const" version="opset1">
			<data element_type="i32" shape="1" offset="2560" size="4" />
			<rt_info>
				<attribute name="precise" version="0" />
			</rt_info>
			<output>
				<port id="0" precision="I32">
					<dim>1</dim>
				</port>
			</output>
		</layer>
		<layer id="280" name="__module.mask_decoder/aten::size/Constant_4" type="Const" version="opset1">
			<data element_type="i32" shape="" offset="2560" size="4" />
			<rt_info>
				<attribute name="precise" version="0" />
			</rt_info>
			<output>
				<port id="0" precision="I32" />
			</output>
		</layer>
		<layer id="281" name="__module.mask_decoder/aten::size/Gather_4" type="Gather" version="opset8">
			<data batch_dims="0" />
			<input>
				<port id="0" precision="I32">
					<dim>3</dim>
				</port>
				<port id="1" precision="I32">
					<dim>1</dim>
				</port>
				<port id="2" precision="I32" />
			</input>
			<output>
				<port id="3" precision="I32" names="1085">
					<dim>1</dim>
				</port>
			</output>
		</layer>
		<layer id="282" name="__module.mask_decoder/prim::ListConstruct/Reshape_0_1" type="Const" version="opset1">
			<data element_type="i32" shape="1" offset="2586" size="4" />
			<rt_info>
				<attribute name="precise" version="0" />
			</rt_info>
			<output>
				<port id="0" precision="I32">
					<dim>1</dim>
				</port>
			</output>
		</layer>
		<layer id="283" name="__module.mask_decoder/prim::ListConstruct/Reshape_1_1" type="Const" version="opset1">
			<data element_type="i32" shape="1" offset="2586" size="4" />
			<rt_info>
				<attribute name="precise" version="0" />
			</rt_info>
			<output>
				<port id="0" precision="I32">
					<dim>1</dim>
				</port>
			</output>
		</layer>
		<layer id="284" name="__module.mask_decoder/prim::ListConstruct/Concat_1" type="Concat" version="opset1">
			<data axis="0" />
			<input>
				<port id="0" precision="I32">
					<dim>1</dim>
				</port>
				<port id="1" precision="I32">
					<dim>1</dim>
				</port>
				<port id="2" precision="I32">
					<dim>1</dim>
				</port>
			</input>
			<output>
				<port id="3" precision="I32" names="1086">
					<dim>3</dim>
				</port>
			</output>
		</layer>
		<layer id="285" name="__module.mask_decoder/aten::expand/Abs" type="Abs" version="opset1">
			<input>
				<port id="0" precision="I32">
					<dim>3</dim>
				</port>
			</input>
			<output>
				<port id="1" precision="I32">
					<dim>3</dim>
				</port>
			</output>
		</layer>
		<layer id="286" name="__module.mask_decoder/aten::expand/Broadcast" type="Broadcast" version="opset3">
			<data mode="bidirectional" />
			<input>
				<port id="0" precision="FP32">
					<dim>1</dim>
					<dim>5</dim>
					<dim>256</dim>
				</port>
				<port id="1" precision="I32">
					<dim>3</dim>
				</port>
			</input>
			<output>
				<port id="2" precision="FP32" names="1087,output_tokens">
					<dim>-1</dim>
					<dim>5</dim>
					<dim>256</dim>
				</port>
			</output>
		</layer>
		<layer id="287" name="__module.mask_decoder/aten::cat/Concat" type="Concat" version="opset1">
			<data axis="1" />
			<input>
				<port id="0" precision="FP32">
					<dim>-1</dim>
					<dim>5</dim>
					<dim>256</dim>
				</port>
				<port id="1" precision="FP32">
					<dim>-1</dim>
					<dim>6</dim>
					<dim>256</dim>
				</port>
			</input>
			<output>
				<port id="2" precision="FP32" names="1089,tokens">
					<dim>-1</dim>
					<dim>11</dim>
					<dim>256</dim>
				</port>
			</output>
		</layer>
		<layer id="288" name="self.mask_decoder.transformer.layers.0.self_attn.q_proj.weight_compressed" type="Const" version="opset1">
			<data element_type="f16" shape="256, 256" offset="5276" size="131072" />
			<output>
				<port id="0" precision="FP16" names="self.mask_decoder.transformer.layers.0.self_attn.q_proj.weight">
					<dim>256</dim>
					<dim>256</dim>
				</port>
			</output>
		</layer>
		<layer id="289" name="self.mask_decoder.transformer.layers.0.self_attn.q_proj.weight" type="Convert" version="opset1">
			<data destination_type="f32" />
			<rt_info>
				<attribute name="decompression" version="0" />
			</rt_info>
			<input>
				<port id="0" precision="FP16">
					<dim>256</dim>
					<dim>256</dim>
				</port>
			</input>
			<output>
				<port id="1" precision="FP32">
					<dim>256</dim>
					<dim>256</dim>
				</port>
			</output>
		</layer>
		<layer id="290" name="__module.mask_decoder.transformer.layers.0.self_attn.q_proj/aten::linear/MatMul" type="MatMul" version="opset1">
			<data transpose_a="false" transpose_b="true" />
			<input>
				<port id="0" precision="FP32">
					<dim>-1</dim>
					<dim>11</dim>
					<dim>256</dim>
				</port>
				<port id="1" precision="FP32">
					<dim>256</dim>
					<dim>256</dim>
				</port>
			</input>
			<output>
				<port id="2" precision="FP32">
					<dim>-1</dim>
					<dim>11</dim>
					<dim>256</dim>
				</port>
			</output>
		</layer>
		<layer id="291" name="Constant_177571_compressed" type="Const" version="opset1">
			<data element_type="f16" shape="1, 1, 256" offset="136348" size="512" />
			<output>
				<port id="0" precision="FP16">
					<dim>1</dim>
					<dim>1</dim>
					<dim>256</dim>
				</port>
			</output>
		</layer>
		<layer id="292" name="Constant_177571" type="Convert" version="opset1">
			<data destination_type="f32" />
			<rt_info>
				<attribute name="decompression" version="0" />
			</rt_info>
			<input>
				<port id="0" precision="FP16">
					<dim>1</dim>
					<dim>1</dim>
					<dim>256</dim>
				</port>
			</input>
			<output>
				<port id="1" precision="FP32">
					<dim>1</dim>
					<dim>1</dim>
					<dim>256</dim>
				</port>
			</output>
		</layer>
		<layer id="293" name="__module.mask_decoder.transformer.layers.0.self_attn.q_proj/aten::linear/Add" type="Add" version="opset1">
			<data auto_broadcast="numpy" />
			<input>
				<port id="0" precision="FP32">
					<dim>-1</dim>
					<dim>11</dim>
					<dim>256</dim>
				</port>
				<port id="1" precision="FP32">
					<dim>1</dim>
					<dim>1</dim>
					<dim>256</dim>
				</port>
			</input>
			<output>
				<port id="2" precision="FP32" names="1123,x.47">
					<dim>-1</dim>
					<dim>11</dim>
					<dim>256</dim>
				</port>
			</output>
		</layer>
		<layer id="294" name="__module.mask_decoder.transformer.layers.0.self_attn/aten::size/ShapeOf" type="ShapeOf" version="opset3">
			<data output_type="i32" />
			<input>
				<port id="0" precision="FP32">
					<dim>-1</dim>
					<dim>11</dim>
					<dim>256</dim>
				</port>
			</input>
			<output>
				<port id="1" precision="I32">
					<dim>3</dim>
				</port>
			</output>
		</layer>
		<layer id="295" name="Constant_170297" type="Const" version="opset1">
			<data element_type="i32" shape="2" offset="136860" size="8" />
			<rt_info>
				<attribute name="precise" version="0" />
			</rt_info>
			<output>
				<port id="0" precision="I32">
					<dim>2</dim>
				</port>
			</output>
		</layer>
		<layer id="296" name="Constant_170298" type="Const" version="opset1">
			<data element_type="i64" shape="" offset="2568" size="8" />
			<rt_info>
				<attribute name="precise" version="0" />
			</rt_info>
			<output>
				<port id="0" precision="I64" />
			</output>
		</layer>
		<layer id="297" name="Gather_170299" type="Gather" version="opset8">
			<data batch_dims="0" />
			<input>
				<port id="0" precision="I32">
					<dim>3</dim>
				</port>
				<port id="1" precision="I32">
					<dim>2</dim>
				</port>
				<port id="2" precision="I64" />
			</input>
			<output>
				<port id="3" precision="I32">
					<dim>2</dim>
				</port>
			</output>
		</layer>
		<layer id="298" name="__module.mask_decoder.transformer.layers.0.self_attn/prim::ListConstruct/Reshape_1" type="Const" version="opset1">
			<data element_type="i32" shape="1" offset="136868" size="4" />
			<rt_info>
				<attribute name="precise" version="0" />
			</rt_info>
			<output>
				<port id="0" precision="I32">
					<dim>1</dim>
				</port>
			</output>
		</layer>
		<layer id="299" name="1037" type="Const" version="opset1">
			<data element_type="i32" shape="" offset="2594" size="4" />
			<rt_info>
				<attribute name="precise" version="0" />
			</rt_info>
			<output>
				<port id="0" precision="I32" names="1037" />
			</output>
		</layer>
		<layer id="300" name="__module.mask_decoder.transformer.layers.0.self_attn/aten::size/Constant_2" type="Const" version="opset1">
			<data element_type="i32" shape="" offset="2560" size="4" />
			<rt_info>
				<attribute name="precise" version="0" />
			</rt_info>
			<output>
				<port id="0" precision="I32" />
			</output>
		</layer>
		<layer id="301" name="__module.mask_decoder.transformer.layers.0.self_attn/aten::size/Gather_2" type="Gather" version="opset8">
			<data batch_dims="0" />
			<input>
				<port id="0" precision="I32">
					<dim>3</dim>
				</port>
				<port id="1" precision="I32" />
				<port id="2" precision="I32" />
			</input>
			<output>
				<port id="3" precision="I32" names="1132" />
			</output>
		</layer>
		<layer id="302" name="Constant_121656" type="Const" version="opset1">
			<data element_type="i32" shape="" offset="136868" size="4" />
			<rt_info>
				<attribute name="precise" version="0" />
			</rt_info>
			<output>
				<port id="0" precision="I32" names="1028" />
			</output>
		</layer>
		<layer id="303" name="__module.mask_decoder.transformer.layers.0.self_attn/aten::floor_divide/Divide" type="Divide" version="opset1">
			<data auto_broadcast="numpy" m_pythondiv="true" />
			<input>
				<port id="0" precision="I32" />
				<port id="1" precision="I32" />
			</input>
			<output>
				<port id="2" precision="I32" />
			</output>
		</layer>
		<layer id="304" name="__module.mask_decoder.transformer.layers.0.self_attn/aten::floor_divide/Floor" type="Floor" version="opset1">
			<input>
				<port id="0" precision="I32" />
			</input>
			<output>
				<port id="1" precision="I32" names="1134,1135" />
			</output>
		</layer>
		<layer id="305" name="Constant_151349" type="Const" version="opset1">
			<data element_type="i64" shape="1" offset="2618" size="8" />
			<rt_info>
				<attribute name="precise" version="0" />
			</rt_info>
			<output>
				<port id="0" precision="I64">
					<dim>1</dim>
				</port>
			</output>
		</layer>
		<layer id="306" name="__module.mask_decoder.transformer.layers.0.self_attn/prim::ListConstruct/Reshape_2" type="Reshape" version="opset1">
			<data special_zero="false" />
			<input>
				<port id="0" precision="I32" />
				<port id="1" precision="I64">
					<dim>1</dim>
				</port>
			</input>
			<output>
				<port id="2" precision="I32">
					<dim>1</dim>
				</port>
			</output>
		</layer>
		<layer id="307" name="__module.mask_decoder.transformer.layers.0.self_attn/prim::ListConstruct/Concat" type="Concat" version="opset1">
			<data axis="0" />
			<input>
				<port id="0" precision="I32">
					<dim>2</dim>
				</port>
				<port id="1" precision="I32">
					<dim>1</dim>
				</port>
				<port id="2" precision="I32">
					<dim>1</dim>
				</port>
			</input>
			<output>
				<port id="3" precision="I32" names="1136">
					<dim>4</dim>
				</port>
			</output>
		</layer>
		<layer id="308" name="__module.mask_decoder.transformer.layers.0.self_attn/aten::reshape/Reshape" type="Reshape" version="opset1">
			<data special_zero="false" />
			<input>
				<port id="0" precision="FP32">
					<dim>-1</dim>
					<dim>11</dim>
					<dim>256</dim>
				</port>
				<port id="1" precision="I32">
					<dim>4</dim>
				</port>
			</input>
			<output>
				<port id="2" precision="FP32" names="1137,x.49">
					<dim>-1</dim>
					<dim>11</dim>
					<dim>8</dim>
					<dim>32</dim>
				</port>
			</output>
		</layer>
		<layer id="309" name="__module.mask_decoder.transformer.layers.0.self_attn/aten::transpose/ScatterElementsUpdate" type="Const" version="opset1">
			<data element_type="i32" shape="4" offset="136872" size="16" />
			<output>
				<port id="0" precision="I32">
					<dim>4</dim>
				</port>
			</output>
		</layer>
		<layer id="310" name="__module.mask_decoder.transformer.layers.0.self_attn/aten::transpose/Transpose" type="Transpose" version="opset1">
			<input>
				<port id="0" precision="FP32">
					<dim>-1</dim>
					<dim>11</dim>
					<dim>8</dim>
					<dim>32</dim>
				</port>
				<port id="1" precision="I32">
					<dim>4</dim>
				</port>
			</input>
			<output>
				<port id="2" precision="FP32" names="1138,q.25">
					<dim>-1</dim>
					<dim>8</dim>
					<dim>11</dim>
					<dim>32</dim>
				</port>
			</output>
		</layer>
		<layer id="311" name="self.mask_decoder.transformer.layers.0.self_attn.k_proj.weight_compressed" type="Const" version="opset1">
			<data element_type="f16" shape="256, 256" offset="136888" size="131072" />
			<output>
				<port id="0" precision="FP16" names="self.mask_decoder.transformer.layers.0.self_attn.k_proj.weight">
					<dim>256</dim>
					<dim>256</dim>
				</port>
			</output>
		</layer>
		<layer id="312" name="self.mask_decoder.transformer.layers.0.self_attn.k_proj.weight" type="Convert" version="opset1">
			<data destination_type="f32" />
			<rt_info>
				<attribute name="decompression" version="0" />
			</rt_info>
			<input>
				<port id="0" precision="FP16">
					<dim>256</dim>
					<dim>256</dim>
				</port>
			</input>
			<output>
				<port id="1" precision="FP32">
					<dim>256</dim>
					<dim>256</dim>
				</port>
			</output>
		</layer>
		<layer id="313" name="__module.mask_decoder.transformer.layers.0.self_attn.k_proj/aten::linear/MatMul" type="MatMul" version="opset1">
			<data transpose_a="false" transpose_b="true" />
			<input>
				<port id="0" precision="FP32">
					<dim>-1</dim>
					<dim>11</dim>
					<dim>256</dim>
				</port>
				<port id="1" precision="FP32">
					<dim>256</dim>
					<dim>256</dim>
				</port>
			</input>
			<output>
				<port id="2" precision="FP32">
					<dim>-1</dim>
					<dim>11</dim>
					<dim>256</dim>
				</port>
			</output>
		</layer>
		<layer id="314" name="Constant_177572_compressed" type="Const" version="opset1">
			<data element_type="f16" shape="1, 1, 256" offset="267960" size="512" />
			<output>
				<port id="0" precision="FP16">
					<dim>1</dim>
					<dim>1</dim>
					<dim>256</dim>
				</port>
			</output>
		</layer>
		<layer id="315" name="Constant_177572" type="Convert" version="opset1">
			<data destination_type="f32" />
			<rt_info>
				<attribute name="decompression" version="0" />
			</rt_info>
			<input>
				<port id="0" precision="FP16">
					<dim>1</dim>
					<dim>1</dim>
					<dim>256</dim>
				</port>
			</input>
			<output>
				<port id="1" precision="FP32">
					<dim>1</dim>
					<dim>1</dim>
					<dim>256</dim>
				</port>
			</output>
		</layer>
		<layer id="316" name="__module.mask_decoder.transformer.layers.0.self_attn.k_proj/aten::linear/Add" type="Add" version="opset1">
			<data auto_broadcast="numpy" />
			<input>
				<port id="0" precision="FP32">
					<dim>-1</dim>
					<dim>11</dim>
					<dim>256</dim>
				</port>
				<port id="1" precision="FP32">
					<dim>1</dim>
					<dim>1</dim>
					<dim>256</dim>
				</port>
			</input>
			<output>
				<port id="2" precision="FP32" names="1126,x.51">
					<dim>-1</dim>
					<dim>11</dim>
					<dim>256</dim>
				</port>
			</output>
		</layer>
		<layer id="317" name="__module.mask_decoder.transformer.layers.0.self_attn/aten::size/ShapeOf_3" type="ShapeOf" version="opset3">
			<data output_type="i32" />
			<input>
				<port id="0" precision="FP32">
					<dim>-1</dim>
					<dim>11</dim>
					<dim>256</dim>
				</port>
			</input>
			<output>
				<port id="1" precision="I32">
					<dim>3</dim>
				</port>
			</output>
		</layer>
		<layer id="318" name="Constant_170302" type="Const" version="opset1">
			<data element_type="i32" shape="2" offset="136860" size="8" />
			<rt_info>
				<attribute name="precise" version="0" />
			</rt_info>
			<output>
				<port id="0" precision="I32">
					<dim>2</dim>
				</port>
			</output>
		</layer>
		<layer id="319" name="Constant_170303" type="Const" version="opset1">
			<data element_type="i64" shape="" offset="2568" size="8" />
			<rt_info>
				<attribute name="precise" version="0" />
			</rt_info>
			<output>
				<port id="0" precision="I64" />
			</output>
		</layer>
		<layer id="320" name="Gather_170304" type="Gather" version="opset8">
			<data batch_dims="0" />
			<input>
				<port id="0" precision="I32">
					<dim>3</dim>
				</port>
				<port id="1" precision="I32">
					<dim>2</dim>
				</port>
				<port id="2" precision="I64" />
			</input>
			<output>
				<port id="3" precision="I32">
					<dim>2</dim>
				</port>
			</output>
		</layer>
		<layer id="321" name="__module.mask_decoder.transformer.layers.0.self_attn/prim::ListConstruct/Reshape_1_1" type="Const" version="opset1">
			<data element_type="i32" shape="1" offset="136868" size="4" />
			<rt_info>
				<attribute name="precise" version="0" />
			</rt_info>
			<output>
				<port id="0" precision="I32">
					<dim>1</dim>
				</port>
			</output>
		</layer>
		<layer id="322" name="__module.mask_decoder.transformer.layers.0.self_attn/aten::size/Constant_5" type="Const" version="opset1">
			<data element_type="i32" shape="" offset="2560" size="4" />
			<rt_info>
				<attribute name="precise" version="0" />
			</rt_info>
			<output>
				<port id="0" precision="I32" />
			</output>
		</layer>
		<layer id="323" name="__module.mask_decoder.transformer.layers.0.self_attn/aten::size/Gather_5" type="Gather" version="opset8">
			<data batch_dims="0" />
			<input>
				<port id="0" precision="I32">
					<dim>3</dim>
				</port>
				<port id="1" precision="I32" />
				<port id="2" precision="I32" />
			</input>
			<output>
				<port id="3" precision="I32" names="1141" />
			</output>
		</layer>
		<layer id="324" name="__module.mask_decoder.transformer.layers.0.self_attn/aten::floor_divide/Divide_1" type="Divide" version="opset1">
			<data auto_broadcast="numpy" m_pythondiv="true" />
			<input>
				<port id="0" precision="I32" />
				<port id="1" precision="I32" />
			</input>
			<output>
				<port id="2" precision="I32" />
			</output>
		</layer>
		<layer id="325" name="__module.mask_decoder.transformer.layers.0.self_attn/aten::floor_divide/Floor_1" type="Floor" version="opset1">
			<input>
				<port id="0" precision="I32" />
			</input>
			<output>
				<port id="1" precision="I32" names="1143,1144" />
			</output>
		</layer>
		<layer id="326" name="Constant_151353" type="Const" version="opset1">
			<data element_type="i64" shape="1" offset="2618" size="8" />
			<rt_info>
				<attribute name="precise" version="0" />
			</rt_info>
			<output>
				<port id="0" precision="I64">
					<dim>1</dim>
				</port>
			</output>
		</layer>
		<layer id="327" name="__module.mask_decoder.transformer.layers.0.self_attn/prim::ListConstruct/Reshape_2_1" type="Reshape" version="opset1">
			<data special_zero="false" />
			<input>
				<port id="0" precision="I32" />
				<port id="1" precision="I64">
					<dim>1</dim>
				</port>
			</input>
			<output>
				<port id="2" precision="I32">
					<dim>1</dim>
				</port>
			</output>
		</layer>
		<layer id="328" name="__module.mask_decoder.transformer.layers.0.self_attn/prim::ListConstruct/Concat_1" type="Concat" version="opset1">
			<data axis="0" />
			<input>
				<port id="0" precision="I32">
					<dim>2</dim>
				</port>
				<port id="1" precision="I32">
					<dim>1</dim>
				</port>
				<port id="2" precision="I32">
					<dim>1</dim>
				</port>
			</input>
			<output>
				<port id="3" precision="I32" names="1145">
					<dim>4</dim>
				</port>
			</output>
		</layer>
		<layer id="329" name="__module.mask_decoder.transformer.layers.0.self_attn/aten::reshape/Reshape_1" type="Reshape" version="opset1">
			<data special_zero="false" />
			<input>
				<port id="0" precision="FP32">
					<dim>-1</dim>
					<dim>11</dim>
					<dim>256</dim>
				</port>
				<port id="1" precision="I32">
					<dim>4</dim>
				</port>
			</input>
			<output>
				<port id="2" precision="FP32" names="1146,x.53">
					<dim>-1</dim>
					<dim>11</dim>
					<dim>8</dim>
					<dim>32</dim>
				</port>
			</output>
		</layer>
		<layer id="330" name="__module.mask_decoder.transformer.layers.0.self_attn/aten::transpose/ScatterElementsUpdate_1" type="Const" version="opset1">
			<data element_type="i32" shape="4" offset="136872" size="16" />
			<output>
				<port id="0" precision="I32">
					<dim>4</dim>
				</port>
			</output>
		</layer>
		<layer id="331" name="__module.mask_decoder.transformer.layers.0.self_attn/aten::transpose/Transpose_1" type="Transpose" version="opset1">
			<input>
				<port id="0" precision="FP32">
					<dim>-1</dim>
					<dim>11</dim>
					<dim>8</dim>
					<dim>32</dim>
				</port>
				<port id="1" precision="I32">
					<dim>4</dim>
				</port>
			</input>
			<output>
				<port id="2" precision="FP32" names="1147,k.25">
					<dim>-1</dim>
					<dim>8</dim>
					<dim>11</dim>
					<dim>32</dim>
				</port>
			</output>
		</layer>
		<layer id="332" name="Constant_177573_compressed" type="Const" version="opset1">
			<data element_type="f16" shape="1, 1, 1, 1" offset="268472" size="2" />
			<output>
				<port id="0" precision="FP16">
					<dim>1</dim>
					<dim>1</dim>
					<dim>1</dim>
					<dim>1</dim>
				</port>
			</output>
		</layer>
		<layer id="333" name="Constant_177573" type="Convert" version="opset1">
			<data destination_type="f32" />
			<rt_info>
				<attribute name="decompression" version="0" />
			</rt_info>
			<input>
				<port id="0" precision="FP16">
					<dim>1</dim>
					<dim>1</dim>
					<dim>1</dim>
					<dim>1</dim>
				</port>
			</input>
			<output>
				<port id="1" precision="FP32">
					<dim>1</dim>
					<dim>1</dim>
					<dim>1</dim>
					<dim>1</dim>
				</port>
			</output>
		</layer>
		<layer id="334" name="Multiply_176914" type="Multiply" version="opset1">
			<data auto_broadcast="numpy" />
			<input>
				<port id="0" precision="FP32">
					<dim>-1</dim>
					<dim>8</dim>
					<dim>11</dim>
					<dim>32</dim>
				</port>
				<port id="1" precision="FP32">
					<dim>1</dim>
					<dim>1</dim>
					<dim>1</dim>
					<dim>1</dim>
				</port>
			</input>
			<output>
				<port id="2" precision="FP32">
					<dim>-1</dim>
					<dim>8</dim>
					<dim>11</dim>
					<dim>32</dim>
				</port>
			</output>
		</layer>
		<layer id="335" name="__module.mask_decoder.transformer.layers.0.self_attn/aten::mul/Multiply" type="MatMul" version="opset1">
			<data transpose_a="false" transpose_b="true" />
			<input>
				<port id="0" precision="FP32">
					<dim>-1</dim>
					<dim>8</dim>
					<dim>11</dim>
					<dim>32</dim>
				</port>
				<port id="1" precision="FP32">
					<dim>-1</dim>
					<dim>8</dim>
					<dim>11</dim>
					<dim>32</dim>
				</port>
			</input>
			<output>
				<port id="2" precision="FP32" names="1160,attn.51">
					<dim>-1</dim>
					<dim>8</dim>
					<dim>11</dim>
					<dim>11</dim>
				</port>
			</output>
		</layer>
		<layer id="336" name="__module.mask_decoder.transformer.layers.0.self_attn/aten::softmax/Softmax" type="SoftMax" version="opset8">
			<data axis="-1" />
			<input>
				<port id="0" precision="FP32">
					<dim>-1</dim>
					<dim>8</dim>
					<dim>11</dim>
					<dim>11</dim>
				</port>
			</input>
			<output>
				<port id="1" precision="FP32" names="1161,attn.53">
					<dim>-1</dim>
					<dim>8</dim>
					<dim>11</dim>
					<dim>11</dim>
				</port>
			</output>
		</layer>
		<layer id="337" name="self.mask_decoder.transformer.layers.0.self_attn.v_proj.weight_compressed" type="Const" version="opset1">
			<data element_type="f16" shape="256, 256" offset="268474" size="131072" />
			<output>
				<port id="0" precision="FP16" names="self.mask_decoder.transformer.layers.0.self_attn.v_proj.weight">
					<dim>256</dim>
					<dim>256</dim>
				</port>
			</output>
		</layer>
		<layer id="338" name="self.mask_decoder.transformer.layers.0.self_attn.v_proj.weight" type="Convert" version="opset1">
			<data destination_type="f32" />
			<rt_info>
				<attribute name="decompression" version="0" />
			</rt_info>
			<input>
				<port id="0" precision="FP16">
					<dim>256</dim>
					<dim>256</dim>
				</port>
			</input>
			<output>
				<port id="1" precision="FP32">
					<dim>256</dim>
					<dim>256</dim>
				</port>
			</output>
		</layer>
		<layer id="339" name="__module.mask_decoder.transformer.layers.0.self_attn.v_proj/aten::linear/MatMul" type="MatMul" version="opset1">
			<data transpose_a="false" transpose_b="true" />
			<input>
				<port id="0" precision="FP32">
					<dim>-1</dim>
					<dim>11</dim>
					<dim>256</dim>
				</port>
				<port id="1" precision="FP32">
					<dim>256</dim>
					<dim>256</dim>
				</port>
			</input>
			<output>
				<port id="2" precision="FP32">
					<dim>-1</dim>
					<dim>11</dim>
					<dim>256</dim>
				</port>
			</output>
		</layer>
		<layer id="340" name="Constant_177574_compressed" type="Const" version="opset1">
			<data element_type="f16" shape="1, 1, 256" offset="399546" size="512" />
			<output>
				<port id="0" precision="FP16">
					<dim>1</dim>
					<dim>1</dim>
					<dim>256</dim>
				</port>
			</output>
		</layer>
		<layer id="341" name="Constant_177574" type="Convert" version="opset1">
			<data destination_type="f32" />
			<rt_info>
				<attribute name="decompression" version="0" />
			</rt_info>
			<input>
				<port id="0" precision="FP16">
					<dim>1</dim>
					<dim>1</dim>
					<dim>256</dim>
				</port>
			</input>
			<output>
				<port id="1" precision="FP32">
					<dim>1</dim>
					<dim>1</dim>
					<dim>256</dim>
				</port>
			</output>
		</layer>
		<layer id="342" name="__module.mask_decoder.transformer.layers.0.self_attn.v_proj/aten::linear/Add" type="Add" version="opset1">
			<data auto_broadcast="numpy" />
			<input>
				<port id="0" precision="FP32">
					<dim>-1</dim>
					<dim>11</dim>
					<dim>256</dim>
				</port>
				<port id="1" precision="FP32">
					<dim>1</dim>
					<dim>1</dim>
					<dim>256</dim>
				</port>
			</input>
			<output>
				<port id="2" precision="FP32" names="1129,x.55">
					<dim>-1</dim>
					<dim>11</dim>
					<dim>256</dim>
				</port>
			</output>
		</layer>
		<layer id="343" name="__module.mask_decoder.transformer.layers.0.self_attn/aten::size/ShapeOf_6" type="ShapeOf" version="opset3">
			<data output_type="i32" />
			<input>
				<port id="0" precision="FP32">
					<dim>-1</dim>
					<dim>11</dim>
					<dim>256</dim>
				</port>
			</input>
			<output>
				<port id="1" precision="I32">
					<dim>3</dim>
				</port>
			</output>
		</layer>
		<layer id="344" name="Constant_170307" type="Const" version="opset1">
			<data element_type="i32" shape="2" offset="136860" size="8" />
			<rt_info>
				<attribute name="precise" version="0" />
			</rt_info>
			<output>
				<port id="0" precision="I32">
					<dim>2</dim>
				</port>
			</output>
		</layer>
		<layer id="345" name="Constant_170308" type="Const" version="opset1">
			<data element_type="i64" shape="" offset="2568" size="8" />
			<rt_info>
				<attribute name="precise" version="0" />
			</rt_info>
			<output>
				<port id="0" precision="I64" />
			</output>
		</layer>
		<layer id="346" name="Gather_170309" type="Gather" version="opset8">
			<data batch_dims="0" />
			<input>
				<port id="0" precision="I32">
					<dim>3</dim>
				</port>
				<port id="1" precision="I32">
					<dim>2</dim>
				</port>
				<port id="2" precision="I64" />
			</input>
			<output>
				<port id="3" precision="I32">
					<dim>2</dim>
				</port>
			</output>
		</layer>
		<layer id="347" name="__module.mask_decoder.transformer.layers.0.self_attn/prim::ListConstruct/Reshape_1_2" type="Const" version="opset1">
			<data element_type="i32" shape="1" offset="136868" size="4" />
			<rt_info>
				<attribute name="precise" version="0" />
			</rt_info>
			<output>
				<port id="0" precision="I32">
					<dim>1</dim>
				</port>
			</output>
		</layer>
		<layer id="348" name="__module.mask_decoder.transformer.layers.0.self_attn/aten::size/Constant_8" type="Const" version="opset1">
			<data element_type="i32" shape="" offset="2560" size="4" />
			<rt_info>
				<attribute name="precise" version="0" />
			</rt_info>
			<output>
				<port id="0" precision="I32" />
			</output>
		</layer>
		<layer id="349" name="__module.mask_decoder.transformer.layers.0.self_attn/aten::size/Gather_8" type="Gather" version="opset8">
			<data batch_dims="0" />
			<input>
				<port id="0" precision="I32">
					<dim>3</dim>
				</port>
				<port id="1" precision="I32" />
				<port id="2" precision="I32" />
			</input>
			<output>
				<port id="3" precision="I32" names="1150" />
			</output>
		</layer>
		<layer id="350" name="__module.mask_decoder.transformer.layers.0.self_attn/aten::floor_divide/Divide_2" type="Divide" version="opset1">
			<data auto_broadcast="numpy" m_pythondiv="true" />
			<input>
				<port id="0" precision="I32" />
				<port id="1" precision="I32" />
			</input>
			<output>
				<port id="2" precision="I32" />
			</output>
		</layer>
		<layer id="351" name="__module.mask_decoder.transformer.layers.0.self_attn/aten::floor_divide/Floor_2" type="Floor" version="opset1">
			<input>
				<port id="0" precision="I32" />
			</input>
			<output>
				<port id="1" precision="I32" names="1152,1153" />
			</output>
		</layer>
		<layer id="352" name="Constant_151357" type="Const" version="opset1">
			<data element_type="i64" shape="1" offset="2618" size="8" />
			<rt_info>
				<attribute name="precise" version="0" />
			</rt_info>
			<output>
				<port id="0" precision="I64">
					<dim>1</dim>
				</port>
			</output>
		</layer>
		<layer id="353" name="__module.mask_decoder.transformer.layers.0.self_attn/prim::ListConstruct/Reshape_2_2" type="Reshape" version="opset1">
			<data special_zero="false" />
			<input>
				<port id="0" precision="I32" />
				<port id="1" precision="I64">
					<dim>1</dim>
				</port>
			</input>
			<output>
				<port id="2" precision="I32">
					<dim>1</dim>
				</port>
			</output>
		</layer>
		<layer id="354" name="__module.mask_decoder.transformer.layers.0.self_attn/prim::ListConstruct/Concat_2" type="Concat" version="opset1">
			<data axis="0" />
			<input>
				<port id="0" precision="I32">
					<dim>2</dim>
				</port>
				<port id="1" precision="I32">
					<dim>1</dim>
				</port>
				<port id="2" precision="I32">
					<dim>1</dim>
				</port>
			</input>
			<output>
				<port id="3" precision="I32" names="1154">
					<dim>4</dim>
				</port>
			</output>
		</layer>
		<layer id="355" name="__module.mask_decoder.transformer.layers.0.self_attn/aten::reshape/Reshape_2" type="Reshape" version="opset1">
			<data special_zero="false" />
			<input>
				<port id="0" precision="FP32">
					<dim>-1</dim>
					<dim>11</dim>
					<dim>256</dim>
				</port>
				<port id="1" precision="I32">
					<dim>4</dim>
				</port>
			</input>
			<output>
				<port id="2" precision="FP32" names="1155,x.57">
					<dim>-1</dim>
					<dim>11</dim>
					<dim>8</dim>
					<dim>32</dim>
				</port>
			</output>
		</layer>
		<layer id="356" name="__module.mask_decoder.transformer.layers.0.self_attn/aten::transpose/ScatterElementsUpdate_2" type="Const" version="opset1">
			<data element_type="i32" shape="4" offset="136872" size="16" />
			<output>
				<port id="0" precision="I32">
					<dim>4</dim>
				</port>
			</output>
		</layer>
		<layer id="357" name="__module.mask_decoder.transformer.layers.0.self_attn/aten::transpose/Transpose_2" type="Transpose" version="opset1">
			<input>
				<port id="0" precision="FP32">
					<dim>-1</dim>
					<dim>11</dim>
					<dim>8</dim>
					<dim>32</dim>
				</port>
				<port id="1" precision="I32">
					<dim>4</dim>
				</port>
			</input>
			<output>
				<port id="2" precision="FP32" names="1156,v.25">
					<dim>-1</dim>
					<dim>8</dim>
					<dim>11</dim>
					<dim>32</dim>
				</port>
			</output>
		</layer>
		<layer id="358" name="__module.mask_decoder.transformer.layers.0.self_attn/aten::matmul/MatMul_1" type="MatMul" version="opset1">
			<data transpose_a="false" transpose_b="false" />
			<input>
				<port id="0" precision="FP32">
					<dim>-1</dim>
					<dim>8</dim>
					<dim>11</dim>
					<dim>11</dim>
				</port>
				<port id="1" precision="FP32">
					<dim>-1</dim>
					<dim>8</dim>
					<dim>11</dim>
					<dim>32</dim>
				</port>
			</input>
			<output>
				<port id="2" precision="FP32" names="1162,x.59">
					<dim>-1</dim>
					<dim>8</dim>
					<dim>11</dim>
					<dim>32</dim>
				</port>
			</output>
		</layer>
		<layer id="359" name="__module.mask_decoder.transformer.layers.0.self_attn/aten::transpose/ScatterElementsUpdate_3" type="Const" version="opset1">
			<data element_type="i32" shape="4" offset="136872" size="16" />
			<output>
				<port id="0" precision="I32">
					<dim>4</dim>
				</port>
			</output>
		</layer>
		<layer id="360" name="__module.mask_decoder.transformer.layers.0.self_attn/aten::transpose/Transpose_3" type="Transpose" version="opset1">
			<input>
				<port id="0" precision="FP32">
					<dim>-1</dim>
					<dim>8</dim>
					<dim>11</dim>
					<dim>32</dim>
				</port>
				<port id="1" precision="I32">
					<dim>4</dim>
				</port>
			</input>
			<output>
				<port id="2" precision="FP32" names="1169,x.61">
					<dim>-1</dim>
					<dim>11</dim>
					<dim>8</dim>
					<dim>32</dim>
				</port>
			</output>
		</layer>
		<layer id="361" name="__module.mask_decoder.transformer.layers.0.self_attn/aten::size/ShapeOf_9" type="ShapeOf" version="opset3">
			<data output_type="i32" />
			<input>
				<port id="0" precision="FP32">
					<dim>-1</dim>
					<dim>8</dim>
					<dim>11</dim>
					<dim>32</dim>
				</port>
			</input>
			<output>
				<port id="1" precision="I32">
					<dim>4</dim>
				</port>
			</output>
		</layer>
		<layer id="362" name="Constant_170312" type="Const" version="opset1">
			<data element_type="i32" shape="2" offset="400058" size="8" />
			<rt_info>
				<attribute name="precise" version="0" />
			</rt_info>
			<output>
				<port id="0" precision="I32">
					<dim>2</dim>
				</port>
			</output>
		</layer>
		<layer id="363" name="Constant_170313" type="Const" version="opset1">
			<data element_type="i64" shape="" offset="2568" size="8" />
			<rt_info>
				<attribute name="precise" version="0" />
			</rt_info>
			<output>
				<port id="0" precision="I64" />
			</output>
		</layer>
		<layer id="364" name="Gather_170314" type="Gather" version="opset8">
			<data batch_dims="0" />
			<input>
				<port id="0" precision="I32">
					<dim>4</dim>
				</port>
				<port id="1" precision="I32">
					<dim>2</dim>
				</port>
				<port id="2" precision="I64" />
			</input>
			<output>
				<port id="3" precision="I32">
					<dim>2</dim>
				</port>
			</output>
		</layer>
		<layer id="365" name="__module.mask_decoder.transformer.layers.0.self_attn/aten::size/Constant_11" type="Const" version="opset1">
			<data element_type="i32" shape="" offset="2560" size="4" />
			<rt_info>
				<attribute name="precise" version="0" />
			</rt_info>
			<output>
				<port id="0" precision="I32" />
			</output>
		</layer>
		<layer id="366" name="__module.mask_decoder.transformer.layers.0.self_attn/aten::size/Gather_11" type="Gather" version="opset8">
			<data batch_dims="0" />
			<input>
				<port id="0" precision="I32">
					<dim>4</dim>
				</port>
				<port id="1" precision="I32" />
				<port id="2" precision="I32" />
			</input>
			<output>
				<port id="3" precision="I32" names="1164" />
			</output>
		</layer>
		<layer id="367" name="1036" type="Const" version="opset1">
			<data element_type="i32" shape="" offset="2564" size="4" />
			<rt_info>
				<attribute name="precise" version="0" />
			</rt_info>
			<output>
				<port id="0" precision="I32" names="1036" />
			</output>
		</layer>
		<layer id="368" name="__module.mask_decoder.transformer.layers.0.self_attn/aten::size/Constant_12" type="Const" version="opset1">
			<data element_type="i32" shape="" offset="2560" size="4" />
			<rt_info>
				<attribute name="precise" version="0" />
			</rt_info>
			<output>
				<port id="0" precision="I32" />
			</output>
		</layer>
		<layer id="369" name="__module.mask_decoder.transformer.layers.0.self_attn/aten::size/Gather_12" type="Gather" version="opset8">
			<data batch_dims="0" />
			<input>
				<port id="0" precision="I32">
					<dim>4</dim>
				</port>
				<port id="1" precision="I32" />
				<port id="2" precision="I32" />
			</input>
			<output>
				<port id="3" precision="I32" names="1167" />
			</output>
		</layer>
		<layer id="370" name="__module.mask_decoder.transformer.layers.0.self_attn/aten::mul/Multiply_1" type="Multiply" version="opset1">
			<data auto_broadcast="numpy" />
			<input>
				<port id="0" precision="I32" />
				<port id="1" precision="I32" />
			</input>
			<output>
				<port id="2" precision="I32" names="1170,1171" />
			</output>
		</layer>
		<layer id="371" name="Constant_151360" type="Const" version="opset1">
			<data element_type="i64" shape="1" offset="2618" size="8" />
			<rt_info>
				<attribute name="precise" version="0" />
			</rt_info>
			<output>
				<port id="0" precision="I64">
					<dim>1</dim>
				</port>
			</output>
		</layer>
		<layer id="372" name="__module.mask_decoder.transformer.layers.0.self_attn/prim::ListConstruct/Reshape_1_3" type="Reshape" version="opset1">
			<data special_zero="false" />
			<input>
				<port id="0" precision="I32" />
				<port id="1" precision="I64">
					<dim>1</dim>
				</port>
			</input>
			<output>
				<port id="2" precision="I32">
					<dim>1</dim>
				</port>
			</output>
		</layer>
		<layer id="373" name="__module.mask_decoder.transformer.layers.0.self_attn/prim::ListConstruct/Concat_3" type="Concat" version="opset1">
			<data axis="0" />
			<input>
				<port id="0" precision="I32">
					<dim>2</dim>
				</port>
				<port id="1" precision="I32">
					<dim>1</dim>
				</port>
			</input>
			<output>
				<port id="2" precision="I32" names="1172">
					<dim>3</dim>
				</port>
			</output>
		</layer>
		<layer id="374" name="__module.mask_decoder.transformer.layers.0.self_attn/aten::reshape/Reshape_3" type="Reshape" version="opset1">
			<data special_zero="false" />
			<input>
				<port id="0" precision="FP32">
					<dim>-1</dim>
					<dim>11</dim>
					<dim>8</dim>
					<dim>32</dim>
				</port>
				<port id="1" precision="I32">
					<dim>3</dim>
				</port>
			</input>
			<output>
				<port id="2" precision="FP32" names="1173,input.153">
					<dim>-1</dim>
					<dim>11</dim>
					<dim>256</dim>
				</port>
			</output>
		</layer>
		<layer id="375" name="self.mask_decoder.transformer.layers.0.self_attn.out_proj.weight_compressed" type="Const" version="opset1">
			<data element_type="f16" shape="256, 256" offset="400066" size="131072" />
			<output>
				<port id="0" precision="FP16" names="self.mask_decoder.transformer.layers.0.self_attn.out_proj.weight">
					<dim>256</dim>
					<dim>256</dim>
				</port>
			</output>
		</layer>
		<layer id="376" name="self.mask_decoder.transformer.layers.0.self_attn.out_proj.weight" type="Convert" version="opset1">
			<data destination_type="f32" />
			<rt_info>
				<attribute name="decompression" version="0" />
			</rt_info>
			<input>
				<port id="0" precision="FP16">
					<dim>256</dim>
					<dim>256</dim>
				</port>
			</input>
			<output>
				<port id="1" precision="FP32">
					<dim>256</dim>
					<dim>256</dim>
				</port>
			</output>
		</layer>
		<layer id="377" name="__module.mask_decoder.transformer.layers.0.self_attn.out_proj/aten::linear/MatMul" type="MatMul" version="opset1">
			<data transpose_a="false" transpose_b="true" />
			<input>
				<port id="0" precision="FP32">
					<dim>-1</dim>
					<dim>11</dim>
					<dim>256</dim>
				</port>
				<port id="1" precision="FP32">
					<dim>256</dim>
					<dim>256</dim>
				</port>
			</input>
			<output>
				<port id="2" precision="FP32">
					<dim>-1</dim>
					<dim>11</dim>
					<dim>256</dim>
				</port>
			</output>
		</layer>
		<layer id="378" name="Constant_177575_compressed" type="Const" version="opset1">
			<data element_type="f16" shape="1, 1, 256" offset="531138" size="512" />
			<output>
				<port id="0" precision="FP16">
					<dim>1</dim>
					<dim>1</dim>
					<dim>256</dim>
				</port>
			</output>
		</layer>
		<layer id="379" name="Constant_177575" type="Convert" version="opset1">
			<data destination_type="f32" />
			<rt_info>
				<attribute name="decompression" version="0" />
			</rt_info>
			<input>
				<port id="0" precision="FP16">
					<dim>1</dim>
					<dim>1</dim>
					<dim>256</dim>
				</port>
			</input>
			<output>
				<port id="1" precision="FP32">
					<dim>1</dim>
					<dim>1</dim>
					<dim>256</dim>
				</port>
			</output>
		</layer>
		<layer id="380" name="__module.mask_decoder.transformer.layers.0.self_attn.out_proj/aten::linear/Add" type="Add" version="opset1">
			<data auto_broadcast="numpy" />
			<input>
				<port id="0" precision="FP32">
					<dim>-1</dim>
					<dim>11</dim>
					<dim>256</dim>
				</port>
				<port id="1" precision="FP32">
					<dim>1</dim>
					<dim>1</dim>
					<dim>256</dim>
				</port>
			</input>
			<output>
				<port id="2" precision="FP32" names="1176,attn_out.1">
					<dim>-1</dim>
					<dim>11</dim>
					<dim>256</dim>
				</port>
			</output>
		</layer>
		<layer id="381" name="__module.mask_decoder.transformer.layers.0/aten::add/Add" type="Add" version="opset1">
			<data auto_broadcast="numpy" />
			<input>
				<port id="0" precision="FP32">
					<dim>-1</dim>
					<dim>11</dim>
					<dim>256</dim>
				</port>
				<port id="1" precision="FP32">
					<dim>-1</dim>
					<dim>11</dim>
					<dim>256</dim>
				</port>
			</input>
			<output>
				<port id="2" precision="FP32" names="1177,input.155">
					<dim>-1</dim>
					<dim>11</dim>
					<dim>256</dim>
				</port>
			</output>
		</layer>
		<layer id="382" name="__module.mask_decoder.transformer.layers.0.norm1/aten::layer_norm/Constant" type="Const" version="opset1">
			<data element_type="i32" shape="1" offset="2586" size="4" />
			<output>
				<port id="0" precision="I32">
					<dim>1</dim>
				</port>
			</output>
		</layer>
		<layer id="383" name="__module.mask_decoder.transformer.layers.0.norm1/aten::layer_norm/MVN" type="MVN" version="opset6">
			<data eps="9.9999997473787516e-06" normalize_variance="true" eps_mode="INSIDE_SQRT" />
			<input>
				<port id="0" precision="FP32">
					<dim>-1</dim>
					<dim>11</dim>
					<dim>256</dim>
				</port>
				<port id="1" precision="I32">
					<dim>1</dim>
				</port>
			</input>
			<output>
				<port id="2" precision="FP32">
					<dim>-1</dim>
					<dim>11</dim>
					<dim>256</dim>
				</port>
			</output>
		</layer>
		<layer id="384" name="Constant_177576_compressed" type="Const" version="opset1">
			<data element_type="f16" shape="1, 1, 256" offset="531650" size="512" />
			<output>
				<port id="0" precision="FP16">
					<dim>1</dim>
					<dim>1</dim>
					<dim>256</dim>
				</port>
			</output>
		</layer>
		<layer id="385" name="Constant_177576" type="Convert" version="opset1">
			<data destination_type="f32" />
			<rt_info>
				<attribute name="decompression" version="0" />
			</rt_info>
			<input>
				<port id="0" precision="FP16">
					<dim>1</dim>
					<dim>1</dim>
					<dim>256</dim>
				</port>
			</input>
			<output>
				<port id="1" precision="FP32">
					<dim>1</dim>
					<dim>1</dim>
					<dim>256</dim>
				</port>
			</output>
		</layer>
		<layer id="386" name="__module.mask_decoder.transformer.layers.0.norm1/aten::layer_norm/Multiply" type="Multiply" version="opset1">
			<data auto_broadcast="numpy" />
			<input>
				<port id="0" precision="FP32">
					<dim>-1</dim>
					<dim>11</dim>
					<dim>256</dim>
				</port>
				<port id="1" precision="FP32">
					<dim>1</dim>
					<dim>1</dim>
					<dim>256</dim>
				</port>
			</input>
			<output>
				<port id="2" precision="FP32">
					<dim>-1</dim>
					<dim>11</dim>
					<dim>256</dim>
				</port>
			</output>
		</layer>
		<layer id="387" name="Constant_177577_compressed" type="Const" version="opset1">
			<data element_type="f16" shape="1, 1, 256" offset="532162" size="512" />
			<output>
				<port id="0" precision="FP16">
					<dim>1</dim>
					<dim>1</dim>
					<dim>256</dim>
				</port>
			</output>
		</layer>
		<layer id="388" name="Constant_177577" type="Convert" version="opset1">
			<data destination_type="f32" />
			<rt_info>
				<attribute name="decompression" version="0" />
			</rt_info>
			<input>
				<port id="0" precision="FP16">
					<dim>1</dim>
					<dim>1</dim>
					<dim>256</dim>
				</port>
			</input>
			<output>
				<port id="1" precision="FP32">
					<dim>1</dim>
					<dim>1</dim>
					<dim>256</dim>
				</port>
			</output>
		</layer>
		<layer id="389" name="__module.mask_decoder.transformer.layers.0.norm1/aten::layer_norm/Add" type="Add" version="opset1">
			<data auto_broadcast="numpy" />
			<input>
				<port id="0" precision="FP32">
					<dim>-1</dim>
					<dim>11</dim>
					<dim>256</dim>
				</port>
				<port id="1" precision="FP32">
					<dim>1</dim>
					<dim>1</dim>
					<dim>256</dim>
				</port>
			</input>
			<output>
				<port id="2" precision="FP32" names="1181,queries.1">
					<dim>-1</dim>
					<dim>11</dim>
					<dim>256</dim>
				</port>
			</output>
		</layer>
		<layer id="390" name="__module.mask_decoder.transformer.layers.0/aten::add/Add_1" type="Add" version="opset1">
			<data auto_broadcast="numpy" />
			<input>
				<port id="0" precision="FP32">
					<dim>-1</dim>
					<dim>11</dim>
					<dim>256</dim>
				</port>
				<port id="1" precision="FP32">
					<dim>-1</dim>
					<dim>11</dim>
					<dim>256</dim>
				</port>
			</input>
			<output>
				<port id="2" precision="FP32" names="1182,input.157">
					<dim>-1</dim>
					<dim>11</dim>
					<dim>256</dim>
				</port>
			</output>
		</layer>
		<layer id="391" name="self.mask_decoder.transformer.layers.0.cross_attn_token_to_image.q_proj.weight_compressed" type="Const" version="opset1">
			<data element_type="f16" shape="128, 256" offset="532674" size="65536" />
			<output>
				<port id="0" precision="FP16" names="self.mask_decoder.transformer.layers.0.cross_attn_token_to_image.q_proj.weight">
					<dim>128</dim>
					<dim>256</dim>
				</port>
			</output>
		</layer>
		<layer id="392" name="self.mask_decoder.transformer.layers.0.cross_attn_token_to_image.q_proj.weight" type="Convert" version="opset1">
…
		<edge from-layer="1555" from-port="2" to-layer="1556" to-port="1" />
		<edge from-layer="1556" from-port="2" to-layer="1557" to-port="0" />
		<edge from-layer="1557" from-port="1" to-layer="1579" to-port="0" />
		<edge from-layer="1558" from-port="0" to-layer="1559" to-port="0" />
		<edge from-layer="1559" from-port="1" to-layer="1560" to-port="1" />
		<edge from-layer="1560" from-port="2" to-layer="1563" to-port="0" />
		<edge from-layer="1561" from-port="0" to-layer="1562" to-port="0" />
		<edge from-layer="1562" from-port="1" to-layer="1563" to-port="1" />
		<edge from-layer="1563" from-port="2" to-layer="1576" to-port="0" />
		<edge from-layer="1563" from-port="2" to-layer="1564" to-port="0" />
		<edge from-layer="1564" from-port="1" to-layer="1567" to-port="0" />
		<edge from-layer="1564" from-port="1" to-layer="1570" to-port="0" />
		<edge from-layer="1565" from-port="0" to-layer="1567" to-port="1" />
		<edge from-layer="1566" from-port="0" to-layer="1567" to-port="2" />
		<edge from-layer="1567" from-port="3" to-layer="1575" to-port="0" />
		<edge from-layer="1568" from-port="0" to-layer="1575" to-port="1" />
		<edge from-layer="1569" from-port="0" to-layer="1570" to-port="2" />
		<edge from-layer="1570" from-port="3" to-layer="1571" to-port="0" />
		<edge from-layer="1571" from-port="2" to-layer="1572" to-port="0" />
		<edge from-layer="1572" from-port="1" to-layer="1574" to-port="0" />
		<edge from-layer="1573" from-port="0" to-layer="1574" to-port="1" />
		<edge from-layer="1574" from-port="2" to-layer="1575" to-port="2" />
		<edge from-layer="1575" from-port="3" to-layer="1576" to-port="1" />
		<edge from-layer="1576" from-port="2" to-layer="1578" to-port="0" />
		<edge from-layer="1577" from-port="0" to-layer="1578" to-port="1" />
		<edge from-layer="1578" from-port="2" to-layer="1579" to-port="1" />
		<edge from-layer="1579" from-port="2" to-layer="1582" to-port="0" />
		<edge from-layer="1579" from-port="2" to-layer="1581" to-port="0" />
		<edge from-layer="1580" from-port="0" to-layer="1581" to-port="1" />
		<edge from-layer="1581" from-port="2" to-layer="1594" to-port="0" />
		<edge from-layer="1582" from-port="1" to-layer="1585" to-port="0" />
		<edge from-layer="1582" from-port="1" to-layer="1589" to-port="0" />
		<edge from-layer="1582" from-port="1" to-layer="1587" to-port="0" />
		<edge from-layer="1583" from-port="0" to-layer="1585" to-port="1" />
		<edge from-layer="1584" from-port="0" to-layer="1585" to-port="2" />
		<edge from-layer="1585" from-port="3" to-layer="1593" to-port="0" />
		<edge from-layer="1586" from-port="0" to-layer="1587" to-port="2" />
		<edge from-layer="1587" from-port="3" to-layer="1590" to-port="0" />
		<edge from-layer="1588" from-port="0" to-layer="1589" to-port="2" />
		<edge from-layer="1589" from-port="3" to-layer="1590" to-port="1" />
		<edge from-layer="1590" from-port="2" to-layer="1592" to-port="0" />
		<edge from-layer="1591" from-port="0" to-layer="1592" to-port="1" />
		<edge from-layer="1592" from-port="2" to-layer="1593" to-port="1" />
		<edge from-layer="1593" from-port="2" to-layer="1594" to-port="1" />
		<edge from-layer="1594" from-port="2" to-layer="1597" to-port="0" />
		<edge from-layer="1595" from-port="0" to-layer="1596" to-port="0" />
		<edge from-layer="1596" from-port="1" to-layer="1597" to-port="1" />
		<edge from-layer="1597" from-port="2" to-layer="1600" to-port="0" />
		<edge from-layer="1598" from-port="0" to-layer="1599" to-port="0" />
		<edge from-layer="1599" from-port="1" to-layer="1600" to-port="1" />
		<edge from-layer="1600" from-port="2" to-layer="1601" to-port="1" />
		<edge from-layer="1601" from-port="2" to-layer="1603" to-port="0" />
		<edge from-layer="1602" from-port="0" to-layer="1603" to-port="1" />
		<edge from-layer="1603" from-port="2" to-layer="1606" to-port="0" />
		<edge from-layer="1604" from-port="0" to-layer="1605" to-port="0" />
		<edge from-layer="1605" from-port="1" to-layer="1606" to-port="1" />
		<edge from-layer="1606" from-port="2" to-layer="1609" to-port="0" />
		<edge from-layer="1607" from-port="0" to-layer="1608" to-port="0" />
		<edge from-layer="1608" from-port="1" to-layer="1609" to-port="1" />
		<edge from-layer="1609" from-port="2" to-layer="1610" to-port="0" />
		<edge from-layer="1609" from-port="2" to-layer="1768" to-port="0" />
		<edge from-layer="1610" from-port="2" to-layer="1613" to-port="0" />
		<edge from-layer="1611" from-port="0" to-layer="1612" to-port="0" />
		<edge from-layer="1612" from-port="1" to-layer="1613" to-port="1" />
		<edge from-layer="1613" from-port="2" to-layer="1616" to-port="0" />
		<edge from-layer="1614" from-port="0" to-layer="1615" to-port="0" />
		<edge from-layer="1615" from-port="1" to-layer="1616" to-port="1" />
		<edge from-layer="1616" from-port="2" to-layer="1629" to-port="0" />
		<edge from-layer="1616" from-port="2" to-layer="1617" to-port="0" />
		<edge from-layer="1617" from-port="1" to-layer="1620" to-port="0" />
		<edge from-layer="1617" from-port="1" to-layer="1623" to-port="0" />
		<edge from-layer="1618" from-port="0" to-layer="1620" to-port="1" />
		<edge from-layer="1619" from-port="0" to-layer="1620" to-port="2" />
		<edge from-layer="1620" from-port="3" to-layer="1628" to-port="0" />
		<edge from-layer="1621" from-port="0" to-layer="1628" to-port="1" />
		<edge from-layer="1622" from-port="0" to-layer="1623" to-port="2" />
		<edge from-layer="1623" from-port="3" to-layer="1624" to-port="0" />
		<edge from-layer="1624" from-port="2" to-layer="1625" to-port="0" />
		<edge from-layer="1625" from-port="1" to-layer="1627" to-port="0" />
		<edge from-layer="1626" from-port="0" to-layer="1627" to-port="1" />
		<edge from-layer="1627" from-port="2" to-layer="1628" to-port="2" />
		<edge from-layer="1628" from-port="3" to-layer="1629" to-port="1" />
		<edge from-layer="1629" from-port="2" to-layer="1631" to-port="0" />
		<edge from-layer="1630" from-port="0" to-layer="1631" to-port="1" />
		<edge from-layer="1631" from-port="2" to-layer="1734" to-port="0" />
		<edge from-layer="1632" from-port="0" to-layer="1633" to-port="0" />
		<edge from-layer="1633" from-port="1" to-layer="1634" to-port="1" />
		<edge from-layer="1634" from-port="2" to-layer="1637" to-port="0" />
		<edge from-layer="1635" from-port="0" to-layer="1636" to-port="0" />
		<edge from-layer="1636" from-port="1" to-layer="1637" to-port="1" />
		<edge from-layer="1637" from-port="2" to-layer="1639" to-port="0" />
		<edge from-layer="1638" from-port="0" to-layer="1639" to-port="1" />
		<edge from-layer="1639" from-port="2" to-layer="1641" to-port="0" />
		<edge from-layer="1640" from-port="0" to-layer="1641" to-port="1" />
		<edge from-layer="1641" from-port="2" to-layer="1666" to-port="0" />
		<edge from-layer="1642" from-port="0" to-layer="1643" to-port="0" />
		<edge from-layer="1643" from-port="1" to-layer="1644" to-port="1" />
		<edge from-layer="1644" from-port="2" to-layer="1647" to-port="0" />
		<edge from-layer="1645" from-port="0" to-layer="1646" to-port="0" />
		<edge from-layer="1646" from-port="1" to-layer="1647" to-port="1" />
		<edge from-layer="1647" from-port="2" to-layer="1660" to-port="0" />
		<edge from-layer="1647" from-port="2" to-layer="1648" to-port="0" />
		<edge from-layer="1648" from-port="1" to-layer="1651" to-port="0" />
		<edge from-layer="1648" from-port="1" to-layer="1654" to-port="0" />
		<edge from-layer="1649" from-port="0" to-layer="1651" to-port="1" />
		<edge from-layer="1650" from-port="0" to-layer="1651" to-port="2" />
		<edge from-layer="1651" from-port="3" to-layer="1659" to-port="0" />
		<edge from-layer="1652" from-port="0" to-layer="1659" to-port="1" />
		<edge from-layer="1653" from-port="0" to-layer="1654" to-port="2" />
		<edge from-layer="1654" from-port="3" to-layer="1655" to-port="0" />
		<edge from-layer="1655" from-port="2" to-layer="1656" to-port="0" />
		<edge from-layer="1656" from-port="1" to-layer="1658" to-port="0" />
		<edge from-layer="1657" from-port="0" to-layer="1658" to-port="1" />
		<edge from-layer="1658" from-port="2" to-layer="1659" to-port="2" />
		<edge from-layer="1659" from-port="3" to-layer="1660" to-port="1" />
		<edge from-layer="1660" from-port="2" to-layer="1662" to-port="0" />
		<edge from-layer="1661" from-port="0" to-layer="1662" to-port="1" />
		<edge from-layer="1662" from-port="2" to-layer="1665" to-port="0" />
		<edge from-layer="1663" from-port="0" to-layer="1664" to-port="0" />
		<edge from-layer="1664" from-port="1" to-layer="1665" to-port="1" />
		<edge from-layer="1665" from-port="2" to-layer="1666" to-port="1" />
		<edge from-layer="1666" from-port="2" to-layer="1667" to-port="0" />
		<edge from-layer="1667" from-port="1" to-layer="1689" to-port="0" />
		<edge from-layer="1668" from-port="0" to-layer="1669" to-port="0" />
		<edge from-layer="1669" from-port="1" to-layer="1670" to-port="1" />
		<edge from-layer="1670" from-port="2" to-layer="1673" to-port="0" />
		<edge from-layer="1671" from-port="0" to-layer="1672" to-port="0" />
		<edge from-layer="1672" from-port="1" to-layer="1673" to-port="1" />
		<edge from-layer="1673" from-port="2" to-layer="1674" to-port="0" />
		<edge from-layer="1673" from-port="2" to-layer="1686" to-port="0" />
		<edge from-layer="1674" from-port="1" to-layer="1680" to-port="0" />
		<edge from-layer="1674" from-port="1" to-layer="1677" to-port="0" />
		<edge from-layer="1675" from-port="0" to-layer="1677" to-port="1" />
		<edge from-layer="1676" from-port="0" to-layer="1677" to-port="2" />
		<edge from-layer="1677" from-port="3" to-layer="1685" to-port="0" />
		<edge from-layer="1678" from-port="0" to-layer="1685" to-port="1" />
		<edge from-layer="1679" from-port="0" to-layer="1680" to-port="2" />
		<edge from-layer="1680" from-port="3" to-layer="1681" to-port="0" />
		<edge from-layer="1681" from-port="2" to-layer="1682" to-port="0" />
		<edge from-layer="1682" from-port="1" to-layer="1684" to-port="0" />
		<edge from-layer="1683" from-port="0" to-layer="1684" to-port="1" />
		<edge from-layer="1684" from-port="2" to-layer="1685" to-port="2" />
		<edge from-layer="1685" from-port="3" to-layer="1686" to-port="1" />
		<edge from-layer="1686" from-port="2" to-layer="1688" to-port="0" />
		<edge from-layer="1687" from-port="0" to-layer="1688" to-port="1" />
		<edge from-layer="1688" from-port="2" to-layer="1689" to-port="1" />
		<edge from-layer="1689" from-port="2" to-layer="1692" to-port="0" />
		<edge from-layer="1689" from-port="2" to-layer="1691" to-port="0" />
		<edge from-layer="1690" from-port="0" to-layer="1691" to-port="1" />
		<edge from-layer="1691" from-port="2" to-layer="1704" to-port="0" />
		<edge from-layer="1692" from-port="1" to-layer="1695" to-port="0" />
		<edge from-layer="1692" from-port="1" to-layer="1697" to-port="0" />
		<edge from-layer="1692" from-port="1" to-layer="1699" to-port="0" />
		<edge from-layer="1693" from-port="0" to-layer="1695" to-port="1" />
		<edge from-layer="1694" from-port="0" to-layer="1695" to-port="2" />
		<edge from-layer="1695" from-port="3" to-layer="1703" to-port="0" />
		<edge from-layer="1696" from-port="0" to-layer="1697" to-port="2" />
		<edge from-layer="1697" from-port="3" to-layer="1700" to-port="0" />
		<edge from-layer="1698" from-port="0" to-layer="1699" to-port="2" />
		<edge from-layer="1699" from-port="3" to-layer="1700" to-port="1" />
		<edge from-layer="1700" from-port="2" to-layer="1702" to-port="0" />
		<edge from-layer="1701" from-port="0" to-layer="1702" to-port="1" />
		<edge from-layer="1702" from-port="2" to-layer="1703" to-port="1" />
		<edge from-layer="1703" from-port="2" to-layer="1704" to-port="1" />
		<edge from-layer="1704" from-port="2" to-layer="1707" to-port="0" />
		<edge from-layer="1705" from-port="0" to-layer="1706" to-port="0" />
		<edge from-layer="1706" from-port="1" to-layer="1707" to-port="1" />
		<edge from-layer="1707" from-port="2" to-layer="1710" to-port="0" />
		<edge from-layer="1708" from-port="0" to-layer="1709" to-port="0" />
		<edge from-layer="1709" from-port="1" to-layer="1710" to-port="1" />
		<edge from-layer="1710" from-port="2" to-layer="1711" to-port="1" />
		<edge from-layer="1711" from-port="2" to-layer="1713" to-port="0" />
		<edge from-layer="1712" from-port="0" to-layer="1713" to-port="1" />
		<edge from-layer="1713" from-port="2" to-layer="1716" to-port="0" />
		<edge from-layer="1714" from-port="0" to-layer="1715" to-port="0" />
		<edge from-layer="1715" from-port="1" to-layer="1716" to-port="1" />
		<edge from-layer="1716" from-port="2" to-layer="1719" to-port="0" />
		<edge from-layer="1717" from-port="0" to-layer="1718" to-port="0" />
		<edge from-layer="1718" from-port="1" to-layer="1719" to-port="1" />
		<edge from-layer="1719" from-port="2" to-layer="1738" to-port="0" />
		<edge from-layer="1719" from-port="2" to-layer="1720" to-port="0" />
		<edge from-layer="1719" from-port="2" to-layer="1900" to-port="0" />
		<edge from-layer="1720" from-port="2" to-layer="1823" to-port="0" />
		<edge from-layer="1720" from-port="2" to-layer="1723" to-port="0" />
		<edge from-layer="1721" from-port="0" to-layer="1722" to-port="0" />
		<edge from-layer="1722" from-port="1" to-layer="1723" to-port="1" />
		<edge from-layer="1723" from-port="2" to-layer="1726" to-port="0" />
		<edge from-layer="1724" from-port="0" to-layer="1725" to-port="0" />
		<edge from-layer="1725" from-port="1" to-layer="1726" to-port="1" />
		<edge from-layer="1726" from-port="2" to-layer="1728" to-port="0" />
		<edge from-layer="1727" from-port="0" to-layer="1728" to-port="1" />
		<edge from-layer="1728" from-port="2" to-layer="1730" to-port="0" />
		<edge from-layer="1729" from-port="0" to-layer="1730" to-port="1" />
		<edge from-layer="1730" from-port="2" to-layer="1733" to-port="0" />
		<edge from-layer="1731" from-port="0" to-layer="1732" to-port="0" />
		<edge from-layer="1732" from-port="1" to-layer="1733" to-port="1" />
		<edge from-layer="1733" from-port="2" to-layer="1734" to-port="1" />
		<edge from-layer="1734" from-port="2" to-layer="1735" to-port="0" />
		<edge from-layer="1735" from-port="1" to-layer="1746" to-port="0" />
		<edge from-layer="1736" from-port="0" to-layer="1737" to-port="0" />
		<edge from-layer="1737" from-port="1" to-layer="1738" to-port="1" />
		<edge from-layer="1738" from-port="2" to-layer="1741" to-port="0" />
		<edge from-layer="1739" from-port="0" to-layer="1740" to-port="0" />
		<edge from-layer="1740" from-port="1" to-layer="1741" to-port="1" />
		<edge from-layer="1741" from-port="2" to-layer="1743" to-port="0" />
		<edge from-layer="1742" from-port="0" to-layer="1743" to-port="1" />
		<edge from-layer="1743" from-port="2" to-layer="1745" to-port="0" />
		<edge from-layer="1744" from-port="0" to-layer="1745" to-port="1" />
		<edge from-layer="1745" from-port="2" to-layer="1746" to-port="1" />
		<edge from-layer="1746" from-port="2" to-layer="1748" to-port="0" />
		<edge from-layer="1746" from-port="2" to-layer="1749" to-port="0" />
		<edge from-layer="1747" from-port="0" to-layer="1748" to-port="1" />
		<edge from-layer="1748" from-port="2" to-layer="1761" to-port="0" />
		<edge from-layer="1749" from-port="1" to-layer="1752" to-port="0" />
		<edge from-layer="1749" from-port="1" to-layer="1754" to-port="0" />
		<edge from-layer="1749" from-port="1" to-layer="1756" to-port="0" />
		<edge from-layer="1750" from-port="0" to-layer="1752" to-port="1" />
		<edge from-layer="1751" from-port="0" to-layer="1752" to-port="2" />
		<edge from-layer="1752" from-port="3" to-layer="1760" to-port="0" />
		<edge from-layer="1753" from-port="0" to-layer="1754" to-port="2" />
		<edge from-layer="1754" from-port="3" to-layer="1757" to-port="0" />
		<edge from-layer="1755" from-port="0" to-layer="1756" to-port="2" />
		<edge from-layer="1756" from-port="3" to-layer="1757" to-port="1" />
		<edge from-layer="1757" from-port="2" to-layer="1759" to-port="0" />
		<edge from-layer="1758" from-port="0" to-layer="1759" to-port="1" />
		<edge from-layer="1759" from-port="2" to-layer="1760" to-port="1" />
		<edge from-layer="1760" from-port="2" to-layer="1761" to-port="1" />
		<edge from-layer="1761" from-port="2" to-layer="1764" to-port="0" />
		<edge from-layer="1762" from-port="0" to-layer="1763" to-port="0" />
		<edge from-layer="1763" from-port="1" to-layer="1764" to-port="1" />
		<edge from-layer="1764" from-port="2" to-layer="1767" to-port="0" />
		<edge from-layer="1765" from-port="0" to-layer="1766" to-port="0" />
		<edge from-layer="1766" from-port="1" to-layer="1767" to-port="1" />
		<edge from-layer="1767" from-port="2" to-layer="1768" to-port="1" />
		<edge from-layer="1768" from-port="2" to-layer="1770" to-port="0" />
		<edge from-layer="1769" from-port="0" to-layer="1770" to-port="1" />
		<edge from-layer="1770" from-port="2" to-layer="1773" to-port="0" />
		<edge from-layer="1771" from-port="0" to-layer="1772" to-port="0" />
		<edge from-layer="1772" from-port="1" to-layer="1773" to-port="1" />
		<edge from-layer="1773" from-port="2" to-layer="1776" to-port="0" />
		<edge from-layer="1774" from-port="0" to-layer="1775" to-port="0" />
		<edge from-layer="1775" from-port="1" to-layer="1776" to-port="1" />
		<edge from-layer="1776" from-port="2" to-layer="1790" to-port="0" />
		<edge from-layer="1776" from-port="2" to-layer="1779" to-port="0" />
		<edge from-layer="1777" from-port="0" to-layer="1778" to-port="0" />
		<edge from-layer="1778" from-port="1" to-layer="1779" to-port="1" />
		<edge from-layer="1779" from-port="2" to-layer="1782" to-port="0" />
		<edge from-layer="1780" from-port="0" to-layer="1781" to-port="0" />
		<edge from-layer="1781" from-port="1" to-layer="1782" to-port="1" />
		<edge from-layer="1782" from-port="2" to-layer="1783" to-port="0" />
		<edge from-layer="1783" from-port="1" to-layer="1786" to-port="0" />
		<edge from-layer="1784" from-port="0" to-layer="1785" to-port="0" />
		<edge from-layer="1785" from-port="1" to-layer="1786" to-port="1" />
		<edge from-layer="1786" from-port="2" to-layer="1789" to-port="0" />
		<edge from-layer="1787" from-port="0" to-layer="1788" to-port="0" />
		<edge from-layer="1788" from-port="1" to-layer="1789" to-port="1" />
		<edge from-layer="1789" from-port="2" to-layer="1790" to-port="1" />
		<edge from-layer="1790" from-port="2" to-layer="1792" to-port="0" />
		<edge from-layer="1791" from-port="0" to-layer="1792" to-port="1" />
		<edge from-layer="1792" from-port="2" to-layer="1795" to-port="0" />
		<edge from-layer="1793" from-port="0" to-layer="1794" to-port="0" />
		<edge from-layer="1794" from-port="1" to-layer="1795" to-port="1" />
		<edge from-layer="1795" from-port="2" to-layer="1798" to-port="0" />
		<edge from-layer="1796" from-port="0" to-layer="1797" to-port="0" />
		<edge from-layer="1797" from-port="1" to-layer="1798" to-port="1" />
		<edge from-layer="1798" from-port="2" to-layer="1859" to-port="0" />
		<edge from-layer="1798" from-port="2" to-layer="1799" to-port="0" />
		<edge from-layer="1798" from-port="2" to-layer="1957" to-port="0" />
		<edge from-layer="1799" from-port="2" to-layer="1833" to-port="0" />
		<edge from-layer="1799" from-port="2" to-layer="1802" to-port="0" />
		<edge from-layer="1800" from-port="0" to-layer="1801" to-port="0" />
		<edge from-layer="1801" from-port="1" to-layer="1802" to-port="1" />
		<edge from-layer="1802" from-port="2" to-layer="1805" to-port="0" />
		<edge from-layer="1803" from-port="0" to-layer="1804" to-port="0" />
		<edge from-layer="1804" from-port="1" to-layer="1805" to-port="1" />
		<edge from-layer="1805" from-port="2" to-layer="1806" to-port="0" />
		<edge from-layer="1805" from-port="2" to-layer="1818" to-port="0" />
		<edge from-layer="1806" from-port="1" to-layer="1809" to-port="0" />
		<edge from-layer="1806" from-port="1" to-layer="1812" to-port="0" />
		<edge from-layer="1807" from-port="0" to-layer="1809" to-port="1" />
		<edge from-layer="1808" from-port="0" to-layer="1809" to-port="2" />
		<edge from-layer="1809" from-port="3" to-layer="1817" to-port="0" />
		<edge from-layer="1810" from-port="0" to-layer="1817" to-port="1" />
		<edge from-layer="1811" from-port="0" to-layer="1812" to-port="2" />
		<edge from-layer="1812" from-port="3" to-layer="1813" to-port="0" />
		<edge from-layer="1813" from-port="2" to-layer="1814" to-port="0" />
		<edge from-layer="1814" from-port="1" to-layer="1816" to-port="0" />
		<edge from-layer="1815" from-port="0" to-layer="1816" to-port="1" />
		<edge from-layer="1816" from-port="2" to-layer="1817" to-port="2" />
		<edge from-layer="1817" from-port="3" to-layer="1818" to-port="1" />
		<edge from-layer="1818" from-port="2" to-layer="1820" to-port="0" />
		<edge from-layer="1819" from-port="0" to-layer="1820" to-port="1" />
		<edge from-layer="1820" from-port="2" to-layer="1923" to-port="0" />
		<edge from-layer="1821" from-port="0" to-layer="1822" to-port="0" />
		<edge from-layer="1822" from-port="1" to-layer="1823" to-port="1" />
		<edge from-layer="1823" from-port="2" to-layer="1826" to-port="0" />
		<edge from-layer="1824" from-port="0" to-layer="1825" to-port="0" />
		<edge from-layer="1825" from-port="1" to-layer="1826" to-port="1" />
		<edge from-layer="1826" from-port="2" to-layer="1828" to-port="0" />
		<edge from-layer="1827" from-port="0" to-layer="1828" to-port="1" />
		<edge from-layer="1828" from-port="2" to-layer="1830" to-port="0" />
		<edge from-layer="1829" from-port="0" to-layer="1830" to-port="1" />
		<edge from-layer="1830" from-port="2" to-layer="1855" to-port="0" />
		<edge from-layer="1831" from-port="0" to-layer="1832" to-port="0" />
		<edge from-layer="1832" from-port="1" to-layer="1833" to-port="1" />
		<edge from-layer="1833" from-port="2" to-layer="1836" to-port="0" />
		<edge from-layer="1834" from-port="0" to-layer="1835" to-port="0" />
		<edge from-layer="1835" from-port="1" to-layer="1836" to-port="1" />
		<edge from-layer="1836" from-port="2" to-layer="1837" to-port="0" />
		<edge from-layer="1836" from-port="2" to-layer="1849" to-port="0" />
		<edge from-layer="1837" from-port="1" to-layer="1840" to-port="0" />
		<edge from-layer="1837" from-port="1" to-layer="1843" to-port="0" />
		<edge from-layer="1838" from-port="0" to-layer="1840" to-port="1" />
		<edge from-layer="1839" from-port="0" to-layer="1840" to-port="2" />
		<edge from-layer="1840" from-port="3" to-layer="1848" to-port="0" />
		<edge from-layer="1841" from-port="0" to-layer="1848" to-port="1" />
		<edge from-layer="1842" from-port="0" to-layer="1843" to-port="2" />
		<edge from-layer="1843" from-port="3" to-layer="1844" to-port="0" />
		<edge from-layer="1844" from-port="2" to-layer="1845" to-port="0" />
		<edge from-layer="1845" from-port="1" to-layer="1847" to-port="0" />
		<edge from-layer="1846" from-port="0" to-layer="1847" to-port="1" />
		<edge from-layer="1847" from-port="2" to-layer="1848" to-port="2" />
		<edge from-layer="1848" from-port="3" to-layer="1849" to-port="1" />
		<edge from-layer="1849" from-port="2" to-layer="1851" to-port="0" />
		<edge from-layer="1850" from-port="0" to-layer="1851" to-port="1" />
		<edge from-layer="1851" from-port="2" to-layer="1854" to-port="0" />
		<edge from-layer="1852" from-port="0" to-layer="1853" to-port="0" />
		<edge from-layer="1853" from-port="1" to-layer="1854" to-port="1" />
		<edge from-layer="1854" from-port="2" to-layer="1855" to-port="1" />
		<edge from-layer="1855" from-port="2" to-layer="1856" to-port="0" />
		<edge from-layer="1856" from-port="1" to-layer="1878" to-port="0" />
		<edge from-layer="1857" from-port="0" to-layer="1858" to-port="0" />
		<edge from-layer="1858" from-port="1" to-layer="1859" to-port="1" />
		<edge from-layer="1859" from-port="2" to-layer="1862" to-port="0" />
		<edge from-layer="1860" from-port="0" to-layer="1861" to-port="0" />
		<edge from-layer="1861" from-port="1" to-layer="1862" to-port="1" />
		<edge from-layer="1862" from-port="2" to-layer="1863" to-port="0" />
		<edge from-layer="1862" from-port="2" to-layer="1875" to-port="0" />
		<edge from-layer="1863" from-port="1" to-layer="1869" to-port="0" />
		<edge from-layer="1863" from-port="1" to-layer="1866" to-port="0" />
		<edge from-layer="1864" from-port="0" to-layer="1866" to-port="1" />
		<edge from-layer="1865" from-port="0" to-layer="1866" to-port="2" />
		<edge from-layer="1866" from-port="3" to-layer="1874" to-port="0" />
		<edge from-layer="1867" from-port="0" to-layer="1874" to-port="1" />
		<edge from-layer="1868" from-port="0" to-layer="1869" to-port="2" />
		<edge from-layer="1869" from-port="3" to-layer="1870" to-port="0" />
		<edge from-layer="1870" from-port="2" to-layer="1871" to-port="0" />
		<edge from-layer="1871" from-port="1" to-layer="1873" to-port="0" />
		<edge from-layer="1872" from-port="0" to-layer="1873" to-port="1" />
		<edge from-layer="1873" from-port="2" to-layer="1874" to-port="2" />
		<edge from-layer="1874" from-port="3" to-layer="1875" to-port="1" />
		<edge from-layer="1875" from-port="2" to-layer="1877" to-port="0" />
		<edge from-layer="1876" from-port="0" to-layer="1877" to-port="1" />
		<edge from-layer="1877" from-port="2" to-layer="1878" to-port="1" />
		<edge from-layer="1878" from-port="2" to-layer="1880" to-port="0" />
		<edge from-layer="1878" from-port="2" to-layer="1881" to-port="0" />
		<edge from-layer="1879" from-port="0" to-layer="1880" to-port="1" />
		<edge from-layer="1880" from-port="2" to-layer="1893" to-port="0" />
		<edge from-layer="1881" from-port="1" to-layer="1884" to-port="0" />
		<edge from-layer="1881" from-port="1" to-layer="1886" to-port="0" />
		<edge from-layer="1881" from-port="1" to-layer="1888" to-port="0" />
		<edge from-layer="1882" from-port="0" to-layer="1884" to-port="1" />
		<edge from-layer="1883" from-port="0" to-layer="1884" to-port="2" />
		<edge from-layer="1884" from-port="3" to-layer="1892" to-port="0" />
		<edge from-layer="1885" from-port="0" to-layer="1886" to-port="2" />
		<edge from-layer="1886" from-port="3" to-layer="1889" to-port="0" />
		<edge from-layer="1887" from-port="0" to-layer="1888" to-port="2" />
		<edge from-layer="1888" from-port="3" to-layer="1889" to-port="1" />
		<edge from-layer="1889" from-port="2" to-layer="1891" to-port="0" />
		<edge from-layer="1890" from-port="0" to-layer="1891" to-port="1" />
		<edge from-layer="1891" from-port="2" to-layer="1892" to-port="1" />
		<edge from-layer="1892" from-port="2" to-layer="1893" to-port="1" />
		<edge from-layer="1893" from-port="2" to-layer="1896" to-port="0" />
		<edge from-layer="1894" from-port="0" to-layer="1895" to-port="0" />
		<edge from-layer="1895" from-port="1" to-layer="1896" to-port="1" />
		<edge from-layer="1896" from-port="2" to-layer="1899" to-port="0" />
		<edge from-layer="1897" from-port="0" to-layer="1898" to-port="0" />
		<edge from-layer="1898" from-port="1" to-layer="1899" to-port="1" />
		<edge from-layer="1899" from-port="2" to-layer="1900" to-port="1" />
		<edge from-layer="1900" from-port="2" to-layer="1902" to-port="0" />
		<edge from-layer="1901" from-port="0" to-layer="1902" to-port="1" />
		<edge from-layer="1902" from-port="2" to-layer="1905" to-port="0" />
		<edge from-layer="1903" from-port="0" to-layer="1904" to-port="0" />
		<edge from-layer="1904" from-port="1" to-layer="1905" to-port="1" />
		<edge from-layer="1905" from-port="2" to-layer="1908" to-port="0" />
		<edge from-layer="1906" from-port="0" to-layer="1907" to-port="0" />
		<edge from-layer="1907" from-port="1" to-layer="1908" to-port="1" />
		<edge from-layer="1908" from-port="2" to-layer="1927" to-port="0" />
		<edge from-layer="1908" from-port="2" to-layer="2121" to-port="0" />
		<edge from-layer="1908" from-port="2" to-layer="1909" to-port="0" />
		<edge from-layer="1909" from-port="2" to-layer="1912" to-port="0" />
		<edge from-layer="1910" from-port="0" to-layer="1911" to-port="0" />
		<edge from-layer="1911" from-port="1" to-layer="1912" to-port="1" />
		<edge from-layer="1912" from-port="2" to-layer="1915" to-port="0" />
		<edge from-layer="1913" from-port="0" to-layer="1914" to-port="0" />
		<edge from-layer="1914" from-port="1" to-layer="1915" to-port="1" />
		<edge from-layer="1915" from-port="2" to-layer="1917" to-port="0" />
		<edge from-layer="1916" from-port="0" to-layer="1917" to-port="1" />
		<edge from-layer="1917" from-port="2" to-layer="1919" to-port="0" />
		<edge from-layer="1918" from-port="0" to-layer="1919" to-port="1" />
		<edge from-layer="1919" from-port="2" to-layer="1922" to-port="0" />
		<edge from-layer="1920" from-port="0" to-layer="1921" to-port="0" />
		<edge from-layer="1921" from-port="1" to-layer="1922" to-port="1" />
		<edge from-layer="1922" from-port="2" to-layer="1923" to-port="1" />
		<edge from-layer="1923" from-port="2" to-layer="1924" to-port="0" />
		<edge from-layer="1924" from-port="1" to-layer="1935" to-port="0" />
		<edge from-layer="1925" from-port="0" to-layer="1926" to-port="0" />
		<edge from-layer="1926" from-port="1" to-layer="1927" to-port="1" />
		<edge from-layer="1927" from-port="2" to-layer="1930" to-port="0" />
		<edge from-layer="1928" from-port="0" to-layer="1929" to-port="0" />
		<edge from-layer="1929" from-port="1" to-layer="1930" to-port="1" />
		<edge from-layer="1930" from-port="2" to-layer="1932" to-port="0" />
		<edge from-layer="1931" from-port="0" to-layer="1932" to-port="1" />
		<edge from-layer="1932" from-port="2" to-layer="1934" to-port="0" />
		<edge from-layer="1933" from-port="0" to-layer="1934" to-port="1" />
		<edge from-layer="1934" from-port="2" to-layer="1935" to-port="1" />
		<edge from-layer="1935" from-port="2" to-layer="1938" to-port="0" />
		<edge from-layer="1935" from-port="2" to-layer="1937" to-port="0" />
		<edge from-layer="1936" from-port="0" to-layer="1937" to-port="1" />
		<edge from-layer="1937" from-port="2" to-layer="1950" to-port="0" />
		<edge from-layer="1938" from-port="1" to-layer="1945" to-port="0" />
		<edge from-layer="1938" from-port="1" to-layer="1943" to-port="0" />
		<edge from-layer="1938" from-port="1" to-layer="1941" to-port="0" />
		<edge from-layer="1939" from-port="0" to-layer="1941" to-port="1" />
		<edge from-layer="1940" from-port="0" to-layer="1941" to-port="2" />
		<edge from-layer="1941" from-port="3" to-layer="1949" to-port="0" />
		<edge from-layer="1942" from-port="0" to-layer="1943" to-port="2" />
		<edge from-layer="1943" from-port="3" to-layer="1946" to-port="0" />
		<edge from-layer="1944" from-port="0" to-layer="1945" to-port="2" />
		<edge from-layer="1945" from-port="3" to-layer="1946" to-port="1" />
		<edge from-layer="1946" from-port="2" to-layer="1948" to-port="0" />
		<edge from-layer="1947" from-port="0" to-layer="1948" to-port="1" />
		<edge from-layer="1948" from-port="2" to-layer="1949" to-port="1" />
		<edge from-layer="1949" from-port="2" to-layer="1950" to-port="1" />
		<edge from-layer="1950" from-port="2" to-layer="1953" to-port="0" />
		<edge from-layer="1951" from-port="0" to-layer="1952" to-port="0" />
		<edge from-layer="1952" from-port="1" to-layer="1953" to-port="1" />
		<edge from-layer="1953" from-port="2" to-layer="1956" to-port="0" />
		<edge from-layer="1954" from-port="0" to-layer="1955" to-port="0" />
		<edge from-layer="1955" from-port="1" to-layer="1956" to-port="1" />
		<edge from-layer="1956" from-port="2" to-layer="1957" to-port="1" />
		<edge from-layer="1957" from-port="2" to-layer="1959" to-port="0" />
		<edge from-layer="1958" from-port="0" to-layer="1959" to-port="1" />
		<edge from-layer="1959" from-port="2" to-layer="1962" to-port="0" />
		<edge from-layer="1960" from-port="0" to-layer="1961" to-port="0" />
		<edge from-layer="1961" from-port="1" to-layer="1962" to-port="1" />
		<edge from-layer="1962" from-port="2" to-layer="1965" to-port="0" />
		<edge from-layer="1963" from-port="0" to-layer="1964" to-port="0" />
		<edge from-layer="1964" from-port="1" to-layer="1965" to-port="1" />
		<edge from-layer="1965" from-port="2" to-layer="1969" to-port="0" />
		<edge from-layer="1966" from-port="0" to-layer="1969" to-port="1" />
		<edge from-layer="1967" from-port="0" to-layer="1969" to-port="2" />
		<edge from-layer="1968" from-port="0" to-layer="1969" to-port="3" />
		<edge from-layer="1969" from-port="4" to-layer="1970" to-port="0" />
		<edge from-layer="1969" from-port="4" to-layer="2006" to-port="0" />
		<edge from-layer="1970" from-port="3" to-layer="1974" to-port="0" />
		<edge from-layer="1971" from-port="0" to-layer="1974" to-port="1" />
		<edge from-layer="1972" from-port="0" to-layer="1974" to-port="2" />
		<edge from-layer="1973" from-port="0" to-layer="1974" to-port="3" />
		<edge from-layer="1974" from-port="4" to-layer="1977" to-port="0" />
		<edge from-layer="1975" from-port="0" to-layer="1976" to-port="0" />
		<edge from-layer="1976" from-port="1" to-layer="1977" to-port="1" />
		<edge from-layer="1977" from-port="2" to-layer="1980" to-port="0" />
		<edge from-layer="1978" from-port="0" to-layer="1979" to-port="0" />
		<edge from-layer="1979" from-port="1" to-layer="1980" to-port="1" />
		<edge from-layer="1980" from-port="2" to-layer="1981" to-port="0" />
		<edge from-layer="1981" from-port="1" to-layer="1984" to-port="0" />
		<edge from-layer="1982" from-port="0" to-layer="1983" to-port="0" />
		<edge from-layer="1983" from-port="1" to-layer="1984" to-port="1" />
		<edge from-layer="1984" from-port="2" to-layer="1987" to-port="0" />
		<edge from-layer="1985" from-port="0" to-layer="1986" to-port="0" />
		<edge from-layer="1986" from-port="1" to-layer="1987" to-port="1" />
		<edge from-layer="1987" from-port="2" to-layer="1988" to-port="0" />
		<edge from-layer="1988" from-port="1" to-layer="1991" to-port="0" />
		<edge from-layer="1989" from-port="0" to-layer="1990" to-port="0" />
		<edge from-layer="1990" from-port="1" to-layer="1991" to-port="1" />
		<edge from-layer="1991" from-port="2" to-layer="1994" to-port="0" />
		<edge from-layer="1992" from-port="0" to-layer="1993" to-port="0" />
		<edge from-layer="1993" from-port="1" to-layer="1994" to-port="1" />
		<edge from-layer="1994" from-port="2" to-layer="1998" to-port="0" />
		<edge from-layer="1995" from-port="0" to-layer="1998" to-port="1" />
		<edge from-layer="1996" from-port="0" to-layer="1998" to-port="2" />
		<edge from-layer="1997" from-port="0" to-layer="1998" to-port="3" />
		<edge from-layer="1998" from-port="4" to-layer="2002" to-port="0" />
		<edge from-layer="1999" from-port="0" to-layer="2002" to-port="1" />
		<edge from-layer="2000" from-port="0" to-layer="2002" to-port="2" />
		<edge from-layer="2001" from-port="0" to-layer="2002" to-port="3" />
		<edge from-layer="2002" from-port="4" to-layer="2190" to-port="0" />
		<edge from-layer="2003" from-port="0" to-layer="2006" to-port="1" />
		<edge from-layer="2004" from-port="0" to-layer="2006" to-port="2" />
		<edge from-layer="2005" from-port="0" to-layer="2006" to-port="3" />
		<edge from-layer="2006" from-port="4" to-layer="2010" to-port="0" />
		<edge from-layer="2007" from-port="0" to-layer="2010" to-port="1" />
		<edge from-layer="2008" from-port="0" to-layer="2010" to-port="2" />
		<edge from-layer="2009" from-port="0" to-layer="2010" to-port="3" />
		<edge from-layer="2010" from-port="4" to-layer="2014" to-port="0" />
		<edge from-layer="2011" from-port="0" to-layer="2014" to-port="1" />
		<edge from-layer="2012" from-port="0" to-layer="2014" to-port="2" />
		<edge from-layer="2013" from-port="0" to-layer="2014" to-port="3" />
		<edge from-layer="2014" from-port="4" to-layer="2093" to-port="0" />
		<edge from-layer="2014" from-port="4" to-layer="2067" to-port="0" />
		<edge from-layer="2014" from-port="4" to-layer="2041" to-port="0" />
		<edge from-layer="2014" from-port="4" to-layer="2015" to-port="0" />
		<edge from-layer="2015" from-port="3" to-layer="2019" to-port="0" />
		<edge from-layer="2016" from-port="0" to-layer="2019" to-port="1" />
		<edge from-layer="2017" from-port="0" to-layer="2019" to-port="2" />
		<edge from-layer="2018" from-port="0" to-layer="2019" to-port="3" />
		<edge from-layer="2019" from-port="4" to-layer="2022" to-port="0" />
		<edge from-layer="2020" from-port="0" to-layer="2021" to-port="0" />
		<edge from-layer="2021" from-port="1" to-layer="2022" to-port="1" />
		<edge from-layer="2022" from-port="2" to-layer="2025" to-port="0" />
		<edge from-layer="2023" from-port="0" to-layer="2024" to-port="0" />
		<edge from-layer="2024" from-port="1" to-layer="2025" to-port="1" />
		<edge from-layer="2025" from-port="2" to-layer="2026" to-port="0" />
		<edge from-layer="2026" from-port="1" to-layer="2029" to-port="0" />
		<edge from-layer="2027" from-port="0" to-layer="2028" to-port="0" />
		<edge from-layer="2028" from-port="1" to-layer="2029" to-port="1" />
		<edge from-layer="2029" from-port="2" to-layer="2032" to-port="0" />
		<edge from-layer="2030" from-port="0" to-layer="2031" to-port="0" />
		<edge from-layer="2031" from-port="1" to-layer="2032" to-port="1" />
		<edge from-layer="2032" from-port="2" to-layer="2033" to-port="0" />
		<edge from-layer="2033" from-port="1" to-layer="2036" to-port="0" />
		<edge from-layer="2034" from-port="0" to-layer="2035" to-port="0" />
		<edge from-layer="2035" from-port="1" to-layer="2036" to-port="1" />
		<edge from-layer="2036" from-port="2" to-layer="2039" to-port="0" />
		<edge from-layer="2037" from-port="0" to-layer="2038" to-port="0" />
		<edge from-layer="2038" from-port="1" to-layer="2039" to-port="1" />
		<edge from-layer="2039" from-port="2" to-layer="2040" to-port="0" />
		<edge from-layer="2040" from-port="2" to-layer="2119" to-port="0" />
		<edge from-layer="2041" from-port="3" to-layer="2045" to-port="0" />
		<edge from-layer="2042" from-port="0" to-layer="2045" to-port="1" />
		<edge from-layer="2043" from-port="0" to-layer="2045" to-port="2" />
		<edge from-layer="2044" from-port="0" to-layer="2045" to-port="3" />
		<edge from-layer="2045" from-port="4" to-layer="2048" to-port="0" />
		<edge from-layer="2046" from-port="0" to-layer="2047" to-port="0" />
		<edge from-layer="2047" from-port="1" to-layer="2048" to-port="1" />
		<edge from-layer="2048" from-port="2" to-layer="2051" to-port="0" />
		<edge from-layer="2049" from-port="0" to-layer="2050" to-port="0" />
		<edge from-layer="2050" from-port="1" to-layer="2051" to-port="1" />
		<edge from-layer="2051" from-port="2" to-layer="2052" to-port="0" />
		<edge from-layer="2052" from-port="1" to-layer="2055" to-port="0" />
		<edge from-layer="2053" from-port="0" to-layer="2054" to-port="0" />
		<edge from-layer="2054" from-port="1" to-layer="2055" to-port="1" />
		<edge from-layer="2055" from-port="2" to-layer="2058" to-port="0" />
		<edge from-layer="2056" from-port="0" to-layer="2057" to-port="0" />
		<edge from-layer="2057" from-port="1" to-layer="2058" to-port="1" />
		<edge from-layer="2058" from-port="2" to-layer="2059" to-port="0" />
		<edge from-layer="2059" from-port="1" to-layer="2062" to-port="0" />
		<edge from-layer="2060" from-port="0" to-layer="2061" to-port="0" />
		<edge from-layer="2061" from-port="1" to-layer="2062" to-port="1" />
		<edge from-layer="2062" from-port="2" to-layer="2065" to-port="0" />
		<edge from-layer="2063" from-port="0" to-layer="2064" to-port="0" />
		<edge from-layer="2064" from-port="1" to-layer="2065" to-port="1" />
		<edge from-layer="2065" from-port="2" to-layer="2066" to-port="0" />
		<edge from-layer="2066" from-port="2" to-layer="2119" to-port="1" />
		<edge from-layer="2067" from-port="3" to-layer="2071" to-port="0" />
		<edge from-layer="2068" from-port="0" to-layer="2071" to-port="1" />
		<edge from-layer="2069" from-port="0" to-layer="2071" to-port="2" />
		<edge from-layer="2070" from-port="0" to-layer="2071" to-port="3" />
		<edge from-layer="2071" from-port="4" to-layer="2074" to-port="0" />
		<edge from-layer="2072" from-port="0" to-layer="2073" to-port="0" />
		<edge from-layer="2073" from-port="1" to-layer="2074" to-port="1" />
		<edge from-layer="2074" from-port="2" to-layer="2077" to-port="0" />
		<edge from-layer="2075" from-port="0" to-layer="2076" to-port="0" />
		<edge from-layer="2076" from-port="1" to-layer="2077" to-port="1" />
		<edge from-layer="2077" from-port="2" to-layer="2078" to-port="0" />
		<edge from-layer="2078" from-port="1" to-layer="2081" to-port="0" />
		<edge from-layer="2079" from-port="0" to-layer="2080" to-port="0" />
		<edge from-layer="2080" from-port="1" to-layer="2081" to-port="1" />
		<edge from-layer="2081" from-port="2" to-layer="2084" to-port="0" />
		<edge from-layer="2082" from-port="0" to-layer="2083" to-port="0" />
		<edge from-layer="2083" from-port="1" to-layer="2084" to-port="1" />
		<edge from-layer="2084" from-port="2" to-layer="2085" to-port="0" />
		<edge from-layer="2085" from-port="1" to-layer="2088" to-port="0" />
		<edge from-layer="2086" from-port="0" to-layer="2087" to-port="0" />
		<edge from-layer="2087" from-port="1" to-layer="2088" to-port="1" />
		<edge from-layer="2088" from-port="2" to-layer="2091" to-port="0" />
		<edge from-layer="2089" from-port="0" to-layer="2090" to-port="0" />
		<edge from-layer="2090" from-port="1" to-layer="2091" to-port="1" />
		<edge from-layer="2091" from-port="2" to-layer="2092" to-port="0" />
		<edge from-layer="2092" from-port="2" to-layer="2119" to-port="2" />
		<edge from-layer="2093" from-port="3" to-layer="2097" to-port="0" />
		<edge from-layer="2094" from-port="0" to-layer="2097" to-port="1" />
		<edge from-layer="2095" from-port="0" to-layer="2097" to-port="2" />
		<edge from-layer="2096" from-port="0" to-layer="2097" to-port="3" />
		<edge from-layer="2097" from-port="4" to-layer="2100" to-port="0" />
		<edge from-layer="2098" from-port="0" to-layer="2099" to-port="0" />
		<edge from-layer="2099" from-port="1" to-layer="2100" to-port="1" />
		<edge from-layer="2100" from-port="2" to-layer="2103" to-port="0" />
		<edge from-layer="2101" from-port="0" to-layer="2102" to-port="0" />
		<edge from-layer="2102" from-port="1" to-layer="2103" to-port="1" />
		<edge from-layer="2103" from-port="2" to-layer="2104" to-port="0" />
		<edge from-layer="2104" from-port="1" to-layer="2107" to-port="0" />
		<edge from-layer="2105" from-port="0" to-layer="2106" to-port="0" />
		<edge from-layer="2106" from-port="1" to-layer="2107" to-port="1" />
		<edge from-layer="2107" from-port="2" to-layer="2110" to-port="0" />
		<edge from-layer="2108" from-port="0" to-layer="2109" to-port="0" />
		<edge from-layer="2109" from-port="1" to-layer="2110" to-port="1" />
		<edge from-layer="2110" from-port="2" to-layer="2111" to-port="0" />
		<edge from-layer="2111" from-port="1" to-layer="2114" to-port="0" />
		<edge from-layer="2112" from-port="0" to-layer="2113" to-port="0" />
		<edge from-layer="2113" from-port="1" to-layer="2114" to-port="1" />
		<edge from-layer="2114" from-port="2" to-layer="2117" to-port="0" />
		<edge from-layer="2115" from-port="0" to-layer="2116" to-port="0" />
		<edge from-layer="2116" from-port="1" to-layer="2117" to-port="1" />
		<edge from-layer="2117" from-port="2" to-layer="2118" to-port="0" />
		<edge from-layer="2118" from-port="2" to-layer="2119" to-port="3" />
		<edge from-layer="2119" from-port="4" to-layer="2163" to-port="0" />
		<edge from-layer="2120" from-port="0" to-layer="2121" to-port="1" />
		<edge from-layer="2121" from-port="2" to-layer="2122" to-port="0" />
		<edge from-layer="2122" from-port="2" to-layer="2125" to-port="0" />
		<edge from-layer="2123" from-port="0" to-layer="2124" to-port="0" />
		<edge from-layer="2124" from-port="1" to-layer="2125" to-port="1" />
		<edge from-layer="2125" from-port="2" to-layer="2128" to-port="0" />
		<edge from-layer="2126" from-port="0" to-layer="2127" to-port="0" />
		<edge from-layer="2127" from-port="1" to-layer="2128" to-port="1" />
		<edge from-layer="2128" from-port="2" to-layer="2130" to-port="0" />
		<edge from-layer="2128" from-port="2" to-layer="2133" to-port="0" />
		<edge from-layer="2129" from-port="0" to-layer="2130" to-port="1" />
		<edge from-layer="2130" from-port="2" to-layer="2132" to-port="0" />
		<edge from-layer="2131" from-port="0" to-layer="2132" to-port="1" />
		<edge from-layer="2132" from-port="2" to-layer="2134" to-port="0" />
		<edge from-layer="2133" from-port="1" to-layer="2134" to-port="1" />
		<edge from-layer="2134" from-port="2" to-layer="2137" to-port="0" />
		<edge from-layer="2135" from-port="0" to-layer="2136" to-port="0" />
		<edge from-layer="2136" from-port="1" to-layer="2137" to-port="1" />
		<edge from-layer="2137" from-port="2" to-layer="2140" to-port="0" />
		<edge from-layer="2138" from-port="0" to-layer="2139" to-port="0" />
		<edge from-layer="2139" from-port="1" to-layer="2140" to-port="1" />
		<edge from-layer="2140" from-port="2" to-layer="2141" to-port="0" />
		<edge from-layer="2141" from-port="1" to-layer="2144" to-port="0" />
		<edge from-layer="2142" from-port="0" to-layer="2143" to-port="0" />
		<edge from-layer="2143" from-port="1" to-layer="2144" to-port="1" />
		<edge from-layer="2144" from-port="2" to-layer="2147" to-port="0" />
		<edge from-layer="2145" from-port="0" to-layer="2146" to-port="0" />
		<edge from-layer="2146" from-port="1" to-layer="2147" to-port="1" />
		<edge from-layer="2147" from-port="2" to-layer="2148" to-port="0" />
		<edge from-layer="2148" from-port="1" to-layer="2162" to-port="0" />
		<edge from-layer="2148" from-port="1" to-layer="2149" to-port="0" />
		<edge from-layer="2149" from-port="1" to-layer="2157" to-port="0" />
		<edge from-layer="2149" from-port="1" to-layer="2155" to-port="0" />
		<edge from-layer="2149" from-port="1" to-layer="2152" to-port="0" />
		<edge from-layer="2150" from-port="0" to-layer="2152" to-port="1" />
		<edge from-layer="2151" from-port="0" to-layer="2152" to-port="2" />
		<edge from-layer="2152" from-port="3" to-layer="2161" to-port="0" />
		<edge from-layer="2152" from-port="3" to-layer="2169" to-port="0" />
		<edge from-layer="2153" from-port="0" to-layer="2161" to-port="1" />
		<edge from-layer="2154" from-port="0" to-layer="2155" to-port="2" />
		<edge from-layer="2155" from-port="3" to-layer="2158" to-port="0" />
		<edge from-layer="2155" from-port="3" to-layer="2166" to-port="0" />
		<edge from-layer="2156" from-port="0" to-layer="2157" to-port="2" />
		<edge from-layer="2157" from-port="3" to-layer="2168" to-port="0" />
		<edge from-layer="2157" from-port="3" to-layer="2158" to-port="1" />
		<edge from-layer="2158" from-port="2" to-layer="2160" to-port="0" />
		<edge from-layer="2159" from-port="0" to-layer="2160" to-port="1" />
		<edge from-layer="2160" from-port="2" to-layer="2161" to-port="2" />
		<edge from-layer="2161" from-port="3" to-layer="2162" to-port="1" />
		<edge from-layer="2162" from-port="2" to-layer="2163" to-port="1" />
		<edge from-layer="2163" from-port="2" to-layer="2170" to-port="0" />
		<edge from-layer="2164" from-port="0" to-layer="2169" to-port="1" />
		<edge from-layer="2165" from-port="0" to-layer="2166" to-port="1" />
		<edge from-layer="2166" from-port="2" to-layer="2169" to-port="2" />
		<edge from-layer="2167" from-port="0" to-layer="2168" to-port="1" />
		<edge from-layer="2168" from-port="2" to-layer="2169" to-port="3" />
		<edge from-layer="2169" from-port="4" to-layer="2170" to-port="1" />
		<edge from-layer="2170" from-port="2" to-layer="2174" to-port="0" />
		<edge from-layer="2171" from-port="0" to-layer="2174" to-port="1" />
		<edge from-layer="2172" from-port="0" to-layer="2174" to-port="2" />
		<edge from-layer="2173" from-port="0" to-layer="2174" to-port="3" />
		<edge from-layer="2174" from-port="4" to-layer="2178" to-port="0" />
		<edge from-layer="2175" from-port="0" to-layer="2178" to-port="1" />
		<edge from-layer="2176" from-port="0" to-layer="2178" to-port="2" />
		<edge from-layer="2177" from-port="0" to-layer="2178" to-port="3" />
		<edge from-layer="2178" from-port="4" to-layer="2182" to-port="0" />
		<edge from-layer="2179" from-port="0" to-layer="2182" to-port="1" />
		<edge from-layer="2180" from-port="0" to-layer="2182" to-port="2" />
		<edge from-layer="2181" from-port="0" to-layer="2182" to-port="3" />
		<edge from-layer="2182" from-port="4" to-layer="2197" to-port="0" />
		<edge from-layer="2182" from-port="4" to-layer="2183" to-port="0" />
		<edge from-layer="2183" from-port="1" to-layer="2186" to-port="0" />
		<edge from-layer="2184" from-port="0" to-layer="2186" to-port="1" />
		<edge from-layer="2185" from-port="0" to-layer="2186" to-port="2" />
		<edge from-layer="2186" from-port="3" to-layer="2188" to-port="0" />
		<edge from-layer="2187" from-port="0" to-layer="2188" to-port="1" />
		<edge from-layer="2188" from-port="2" to-layer="2202" to-port="2" />
		<edge from-layer="2188" from-port="2" to-layer="2189" to-port="2" />
		<edge from-layer="2189" from-port="3" to-layer="2190" to-port="1" />
		<edge from-layer="2190" from-port="2" to-layer="2191" to-port="0" />
		<edge from-layer="2192" from-port="0" to-layer="2193" to-port="1" />
		<edge from-layer="2192" from-port="0" to-layer="2194" to-port="1" />
		<edge from-layer="2193" from-port="2" to-layer="2195" to-port="0" />
		<edge from-layer="2194" from-port="2" to-layer="2195" to-port="1" />
		<edge from-layer="2195" from-port="2" to-layer="2197" to-port="1" />
		<edge from-layer="2196" from-port="0" to-layer="2197" to-port="2" />
		<edge from-layer="2197" from-port="3" to-layer="2203" to-port="0" />
		<edge from-layer="2198" from-port="0" to-layer="2199" to-port="1" />
		<edge from-layer="2199" from-port="2" to-layer="2202" to-port="3" />
		<edge from-layer="2200" from-port="0" to-layer="2201" to-port="1" />
		<edge from-layer="2201" from-port="2" to-layer="2202" to-port="4" />
		<edge from-layer="2202" from-port="5" to-layer="2203" to-port="1" />
		<edge from-layer="2203" from-port="2" to-layer="2204" to-port="0" />
	</edges>
	<rt_info>
		<Runtime_version value="2024.0.0-14509-34caeefd078-releases/2024/0" />
		<conversion_parameters>
			<framework value="pytorch" />
			<is_python_object value="True" />
		</conversion_parameters>
	</rt_info>
</net>
